checkpoint_critic.pth (torch_old, 92007 bytes, 13 tensors)

fcs1.weight f4 [128, 33]
000000 ca e1 e6 3d b3 05 43 3e 92 5c 8c 3d 53 55 2f 3e
       0.112735346 0.19045143 0.06853594 0.17122392
000010 9a f2 37 bf 2f cd 8b 3d 54 a8 a3 bd d9 2d 03 bc
       -0.71854556 0.06826245 -0.079910904 -0.008006536
000020 1d b1 a6 bc fd 69 73 3d 54 76 9a 3c e7 ac 04 3c
       -0.020348126 0.05942725 0.018855251 0.008097864
000030 dc 50 57 3c d9 22 5d be 0b 7e 92 bd 20 d8 04 3d
       0.013141837 -0.21595325 -0.07152947 0.032432675
000040 53 3a 70 3e 52 91 1c be 3e 6d 63 be e3 e1 6b 3d
       0.23459749 -0.1528981 -0.22209641 0.05758847
000050 a6 c4 4d bd 26 f2 2a 3d 5a 80 00 3c b1 d8 50 be
       -0.050236367 0.041734837 0.007843101 -0.20395161
000060 0d 32 85 3c d0 55 80 3d f5 7e 49 3d 9d 15 93 bd
       0.016259218 0.062663674 0.04919334 -0.07181857
000070 34 37 84 bd 1e af 52 3d 8e de f1 bc e2 01 34 3d
       -0.06455842 0.051436536 -0.029525068 0.043947108
000080 d4 d2 be 3d 7e 6e e4 3d 2d 97 1d 3d e2 39 01 3e
       0.09317556 0.11153887 0.03847425 0.12619737
000090 4b 13 d6 3e 30 51 86 3e 4d 55 f0 3e ee f2 76 3e
       0.41811594 0.26233816 0.4694008 0.24116108
0000a0 bf d5 10 bd 84 ff 34 bd 41 e3 d2 3d 2c 26 83 3c
       -0.035360094 -0.04418899 0.102972515 0.016009413
0000b0 af f4 50 bc 32 85 6f 3d 09 bf 9b bd 91 08 a0 3d
       -0.01275365 0.058476634 -0.076047964 0.07814134
0000c0 4f a2 85 bd 59 e0 9e 3e 61 a6 01 3d e6 65 b0 3e
       -0.065250985 0.3103054 0.031652812 0.34452742
0000d0 f2 da ce be 81 fb 31 3d b5 c0 45 3c f5 59 a2 bd
       -0.40401417 0.043452743 0.012069871 -0.07927314
0000e0 df 1b 8b bd 3a e5 c7 bc 22 d2 58 3c 0c b2 48 bd
       -0.06792425 -0.024401296 0.013233693 -0.048997924
0000f0 7b 66 38 be e6 a9 16 3d e0 03 cd bb a6 bf 5e 3e
       -0.18007843 0.03678312 -0.0062565655 0.21752796
000100 3d 7e 82 3d d3 97 0f bf e7 bc 8b 3d 4e 15 7d be
       0.06371734 -0.5609104 0.0682314 -0.24715158
000110 cd 82 ee bd 4e 7e bc be 68 d5 a1 3d b4 71 d9 be
       -0.11646042 -0.36815113 0.07902032 -0.4246956
000120 1d ea ba 3d 49 76 ae bd d6 3e 9d bc 41 fc dc 3d
       0.09126685 -0.08518655 -0.019195002 0.10790301
000130 e2 83 d7 bb cd 99 3c 3c f9 85 d1 bc ee cc a8 bc
       -0.006577001 0.011511278 -0.025576578 -0.02060553
000140 3a df 51 3e a6 0e 7b 3c 2b 62 0b be 3b b1 07 3f
       0.2049531 0.015323317 -0.13611667 0.5300481
000150 2b 97 8a 3e a4 cd b9 3d 5f 1d c0 3c 67 15 41 bd
       0.27068457 0.09072426 0.023451505 -0.04713955
000160 a7 b1 45 bd f0 ba 5f bc ec e8 62 3d 1d 10 e1 3b
       -0.048265126 -0.013655409 0.055397913 0.006868376
000170 af ba 83 3c d4 19 17 bb 80 57 8d 3c 9d b8 90 3d
       0.016080229 -0.0023056166 0.017253637 0.07066462
000180 e4 f2 98 3d 80 51 9e 3c 76 5d 1a bf 15 f9 b0 3d
       0.07468203 0.019325972 -0.6029886 0.086412586
000190 f2 11 8d bd 5d 2e 2b 3d f1 67 8d be f4 3a 69 be
       -0.068881884 0.041792262 -0.27618363 -0.22776395
0001a0 a7 86 9f 3e f5 0b d4 be f5 e7 9c bb 3c a6 bf 3d
       0.3115742 -0.41415372 -0.0047883936 0.093578786
0001b0 c9 59 e2 38 1f ba 38 bc 79 49 dd 3c 4e 9a 71 3c
       0.000107932436 -0.0112748435 0.027012574 0.014746262
0001c0 f5 d2 32 3d 53 31 d7 3c e0 9c a1 bb 50 2a ee 3e
       0.043658216 0.026268637 -0.004932031 0.46516657
0001d0 3b 6f 12 3e c1 a3 e8 3d e9 50 2a 3f b2 91 2b 3d
       0.14300244 0.113593586 0.6652971 0.041886993
0001e0 0f e7 67 bd 64 cd 59 bb 17 23 57 bd 3d eb 85 bd
       -0.05661684 -0.0033233995 -0.0525237 -0.06539009
0001f0 46 87 8d 3c ff d6 c5 3b c1 d4 33 3e 74 ac 8b bd
       0.017276417 0.0060375924 0.17561628 -0.06820002
000200 64 f3 b8 3c f1 41 01 be 44 d2 a6 3c 9d 7f 02 3f
       0.022576995 -0.12622811 0.020363934 0.5097597
000210 48 1d ca 3d 27 fc 75 3e 25 04 2f bd 20 23 f5 bc
       0.09868866 0.2402197 -0.042728562 -0.029923975
000220 12 13 4c be fc 4a 89 be 4a 26 18 3c 3f fa e2 3c
       -0.1992915 -0.2681502 0.009286473 0.027707217
000230 ed fa 17 bd f9 9e 20 3e de d6 c6 bc 21 e9 25 3d
       -0.037104536 0.15685643 -0.024272379 0.040505532
000240 1b 3e e6 bc 09 f3 0b bd 0d 24 49 be c5 5c b0 bd
       -0.028105786 -0.034167323 -0.19642659 -0.086114444
000250 62 0e 88 be 90 44 d0 3e bc 0b 33 bc 87 47 9c 3e
       -0.26573473 0.4067731 -0.010928091 0.3052332
000260 01 d5 fc ba 68 86 82 3b 3c 5d 0a bc fd d7 9e bc
       -0.0019289554 0.0039833076 -0.00844508 -0.0193901
000270 4a fd d8 bd 27 03 5f bd 85 3b 39 3d 58 1c f8 3c
       -0.10595186 -0.054446366 0.045222778 0.030286953
000280 61 f7 d5 3d 53 5c 9e 3d 29 38 2d 3d 8c eb a0 bc
       0.104475744 0.07732453 0.042289887 -0.019643568
000290 9f 28 d6 be 99 b2 93 bb be e6 19 3c e3 56 99 bc
       -0.41827866 -0.0045073745 0.009393392 -0.018718189
0002a0 4b 94 0a 3f 01 53 ad bd cc 18 b0 be 1b 73 ea 3e
       0.5413253 -0.08463097 -0.3439392 0.45790944
0002b0 0d a4 cc bd 9e f0 e0 3c 9e fa 3d be b0 03 31 bd
       -0.09992228 0.027458485 -0.18552634 -0.043216407
0002c0 bc 13 e0 bd a4 d8 b1 3d 4e 49 fe bd 55 d2 99 3d
       -0.10941264 0.08683899 -0.124163255 0.07510821
0002d0 79 4d 49 bd 85 82 31 3e e4 13 d3 3b 08 3e 16 3f
       -0.04914615 0.17334945 0.00644158 0.586884
0002e0 e9 94 cc 3c 73 58 fc bc 28 f5 58 bd 9e 71 7e bd
       0.02497335 -0.030803895 -0.052968174 -0.062120073
0002f0 09 bf 69 3d 2f e2 5a bd 5c 7a 80 3d 1b 2b cc 3d
       0.05706695 -0.05343836 0.06273338 0.09969159
000300 7a 9b 92 bb 14 07 60 3d 61 35 aa 3d 2e e7 90 3c
       -0.0044741007 0.05469425 0.083109625 0.01768836
000310 66 36 6b 3d dc 0e c7 3e 97 18 9e 3d 6c 4e 97 3c
       0.057424925 0.38878524 0.07719534 0.018470012
000320 51 75 0a 3e 8c 00 f2 be ce 20 91 be 3c b3 0e 3e
       0.13521315 -0.47266042 -0.2834534 0.1393556
000330 f6 cd ba bc 1d 5d af bd 9a c5 76 bd b8 21 f9 bd
       -0.022803288 -0.08562682 -0.06024704 -0.121646345
000340 fa c2 6c 3c 33 9f 92 bc 47 6f f0 3c fd 94 f2 bd
       0.014450783 -0.017898178 0.029349936 -0.118448235
000350 38 81 81 bc 0b 7f c0 bd 6e 58 5a 3e e3 24 88 3e
       -0.015808687 -0.093992315 0.21322796 0.26590642
000360 0d 0a bb 3e ca bc 00 3f 93 11 d6 3b 82 87 b4 3c
       0.36531106 0.5028807 0.0065328567 0.022037271
000370 52 11 a5 bb 35 27 4d bd 2d 3d aa ba 11 78 e9 bc
       -0.005037465 -0.05008622 -0.0012988203 -0.028499635
000380 55 ae 85 3d b7 0d dd 3d f4 b3 93 3d 50 bc 7c bd
       0.06527392 0.107936315 0.07212058 -0.061703026
000390 fc b2 05 be e0 e3 1d bb 18 6f f4 be 08 5f e3 3c
       -0.13056558 -0.0024092123 -0.47741008 0.027755275
0003a0 40 c4 b5 bc 60 d8 3f 3e 76 a8 b1 be 36 f1 f4 be
       -0.022188306 0.18734884 -0.34698838 -0.4784028
0003b0 59 32 85 bd 8e 8c 24 3e 47 7d d6 bd e2 81 be bc
       -0.06503744 0.16069242 -0.104731135 -0.023255292
0003c0 78 1b a7 3d 30 a4 29 bd ed d6 90 bb c1 16 a4 bc
       0.08159536 -0.041416347 -0.0044201524 -0.020030381
0003d0 f0 6f 59 3b c2 1f 32 bd 44 4d 2b be 4e 41 6e 3d
       0.0033178292 -0.043487318 -0.16728693 0.05816775
0003e0 42 c9 0b be 0e c6 0d 3e a9 bb de bd 98 8c ef 3c
       -0.13650993 0.13845083 -0.10875637 0.029241845
0003f0 8d 88 3b 3c 14 fa fe 3c af 89 03 bd 01 82 cf bc
       0.01144613 0.031125106 -0.032113727 -0.025330545

fcs1.bias f4 [128]
000000 4a 3e 1e 3e 4d 9f 98 3e 74 d5 74 bd 31 f1 0b be
       0.15453449 0.29809037 -0.059773877 -0.13666226
000010 96 c4 75 bd 9b eb ed 3d e4 ab 33 3d c9 6a 19 be
       -0.060001932 0.11617204 0.0438651 -0.14982142
000020 d6 a6 86 bc a9 93 62 3c f9 86 f7 bd dc 9c 9c bd
       -0.016436975 0.01382915 -0.12086291 -0.07647106
000030 2d 20 5f bd 64 ed 4f be 80 aa 5d be 39 a6 ad 3d
       -0.054474045 -0.20305401 -0.21647072 0.0847897
000040 ed c2 0e be 4e 6a 84 3c ec 4d b2 bd 22 e4 7c be
       -0.13941546 0.016163971 -0.08706269 -0.24696401
000050 75 06 b6 be fa 46 09 3a 4f 07 80 be ae 9b 9b bd
       -0.355518 0.00052367116 -0.25005576 -0.07598053
000060 0e 90 53 be 03 80 6b be 91 c0 90 bd d4 6b 60 be
       -0.20660421 -0.22998051 -0.07067979 -0.21916133
000070 b6 c1 72 be f7 c9 e0 bd 1a a7 c5 bd 15 30 80 bd
       -0.23706707 -0.10976022 -0.09651013 -0.06259171
000080 48 e9 84 bd a9 d6 51 be 85 22 6b be 5e 83 2d 3d
       -0.06489807 -0.20492043 -0.22962387 0.04236161
000090 a4 33 7d be 27 fb 0f bd eb a5 b7 bc 2f 87 6e 3d
       -0.2472673 -0.035151627 -0.022417983 0.05823439
0000a0 fc 97 90 bd 33 5b ab bd 91 49 07 be 27 e1 cc bd
       -0.07060239 -0.08367004 -0.13211657 -0.10003882
0000b0 ed 8a ac ba a4 7b 92 3e c1 ce b8 bd bd 3e 47 be
       -0.0013163962 0.28609955 -0.0902381 -0.19457527
0000c0 3c f6 3b 3e 29 ab f7 bd dd 96 07 3e 79 6b a6 3d
       0.1835565 -0.12093193 0.13241144 0.081259675
0000d0 cd 46 a5 3d 79 cf 83 be 20 7f ea bc 05 f1 68 bc
       0.08070145 -0.25744227 -0.028625071 -0.01421762
0000e0 8a db c1 bd b8 0e 3d be f7 b8 fe 3d 03 82 bd be
       -0.09465702 -0.18462646 0.12437623 -0.37013254
0000f0 1a e5 49 bc 07 a8 6e bd 69 39 e7 bd 5b 87 41 be
       -0.0123226885 -0.058265712 -0.11290247 -0.1889929
000100 35 6d 53 be d2 59 25 be 8d c2 01 be cc 81 1f bd
       -0.20647128 -0.16147545 -0.12671871 -0.038942143
000110 cd fc 3d be 85 db 74 be 33 90 3d be e0 84 98 bd
       -0.18553467 -0.23911865 -0.18512039 -0.07447219
000120 d2 fa 52 bd 2b 44 f6 3c 8c d9 f1 bc 79 5f 01 be
       -0.051508732 0.030061802 -0.02952268 -0.12634076
000130 e6 e3 2f bd d2 67 38 be 22 25 c8 3a 91 56 97 be
       -0.04294195 -0.18008354 0.0015269856 -0.29558232
000140 6c 49 ec bd e0 ce 00 3d 0d 91 28 be 0e e1 71 3e
       -0.115374416 0.03144729 -0.16461582 0.23621008
000150 10 50 fe 3d d9 a4 a4 be 72 35 16 bc 8c d7 70 bd
       0.124176145 -0.3215702 -0.009168016 -0.05879931
000160 00 51 76 3e d1 6d 24 be 5a 58 be be 92 05 f2 bc
       0.24054337 -0.16057517 -0.37176782 -0.029543672
000170 c3 bb 1f bc b7 a8 dd bd 46 39 64 3b bc 78 0b be
       -0.009749356 -0.108231954 0.0034824177 -0.13620275
000180 10 30 a8 3d 36 95 2e be e2 02 06 3d 9a c4 e2 bc
       0.08212292 -0.17049107 0.032717593 -0.027681638
000190 00 c1 84 be 7f f2 f7 bd 38 c1 b3 bd 50 ca 8b 3d
       -0.25928497 -0.12106799 -0.08777088 0.068256974
0001a0 92 5c 1c be 48 8b 1e be 7b ed b7 bd ca de a9 be
       -0.15269688 -0.15482819 -0.08980843 -0.33177787
0001b0 5b 3f d1 bc c2 15 a2 bd 84 02 8e 3c 92 87 c0 bd
       -0.025542906 -0.07914306 0.017335184 -0.09400858
0001c0 b7 ac d4 bc 9f 74 1f be aa 95 a5 bc 65 7e 05 be
       -0.025961263 -0.15571831 -0.020212967 -0.13036497
0001d0 d9 b5 9e 3a 25 34 92 bd 4f fd 92 3c a6 37 2c bd
       0.0012108638 -0.07138852 0.017943053 -0.042045258
0001e0 36 35 85 be 34 15 61 3d 5b 52 6c bc ec 77 7f bc
       -0.2601716 0.05495186 -0.014423932 -0.015592556
0001f0 27 6a b7 3e ac f9 14 3e 66 5e dd bd 31 69 9f bd
       0.35823175 0.14548367 -0.10809021 -0.077837355

fc2.weight f4 [128, 132]
000000 cb 7c b2 bc bd e8 b6 bd 73 64 54 3d 8e a8 f4 bd
       -0.021788022 -0.0893111 0.05185361 -0.11946212
000010 b5 76 06 be f0 fa 24 3d 0a f4 20 3d c9 c0 a4 3d
       -0.1313122 0.040278375 0.039295234 0.08044583
000020 f2 2b 81 3d 60 0a 5e 3d d7 ed f3 3d 14 b9 1e bc
       0.0630721 0.054209113 0.11910599 -0.009687681
000030 2d 2b 72 be dd fa fa bd aa f5 8d 3e b9 f5 26 be
       -0.23649283 -0.122548796 0.2772649 -0.16304673
000040 1d 65 6b 3e 03 be 03 3d 76 67 db bc 55 18 43 3d
       0.2298779 0.03216363 -0.026782732 0.047630627
000050 50 a6 49 3c ae 8c e4 bc 59 a5 55 bc f1 20 04 bd
       0.012307718 -0.027899113 -0.01303991 -0.032257978
000060 df 73 19 3e 20 4d 28 be f2 c5 00 3c 50 c6 0a bd
       0.14985608 -0.16435671 0.007859694 -0.03388053
000070 b6 29 67 be 57 15 33 3e 6f 37 82 3b d9 47 80 3e
       -0.22574505 0.17488609 0.0039738934 0.25054815
000080 82 7a bb 3d f3 c8 bd 3d 12 4e d0 bd 1d ef 26 be
       0.09154226 0.09266844 -0.10171141 -0.16302152
000090 5b 1d 0d be 68 3e 58 bd e7 3f a4 3d c7 75 8a 3c
       -0.1378073 -0.05279389 0.08020001 0.016901864
0000a0 2e a6 76 bd 26 03 87 3d 2c 89 87 3d b5 66 a8 3d
       -0.060217075 0.065923974 0.0661796 0.08222715
0000b0 eb 2b a8 bd ba 2a 8e 3d d3 45 70 be 98 41 4f 3e
       -0.08211502 0.06941743 -0.23464136 0.20239866
0000c0 6c c8 15 bd a6 70 4a 3c 1d 6f c9 bc 81 7c 03 be
       -0.03656809 0.012355959 -0.024589116 -0.12840463
0000d0 bf 11 04 bd 95 1b 2a bc 29 65 00 be 3f 9e 3e bd
       -0.032243486 -0.010382553 -0.1253859 -0.046537634
0000e0 bd 36 13 be ea 81 0b be 08 e2 8c 3d 55 4a b0 bd
       -0.1437635 -0.13623777 0.068790495 -0.08607928
0000f0 15 44 ed 3d 26 60 36 be 0b 6b 69 be e0 35 08 3d
       0.11585251 -0.17810115 -0.2279474 0.033254504
000100 6f a3 9f 3d 05 e7 24 be ad 09 c7 bd dd 09 c2 3d
       0.07794844 -0.16103752 -0.097186424 0.094745375
000110 3b 1c 53 3d 45 ae 8e be 4f 6c 9b 3e 19 b8 8c bd
       0.051540595 -0.27867332 0.3035607 -0.06871051
000120 b9 a3 fd 3d fd 6c bc bd 39 bd c1 bd 9c 98 2a 3e
       0.12384743 -0.09200475 -0.094599195 0.16659778
000130 b6 fa 3d be 13 06 1d bc cb bc 8e bd fd 7d 92 be
       -0.1855267 -0.009583968 -0.06969603 -0.28611746
000140 4d cd b9 3d d9 53 04 bb 0f 14 04 be d9 c4 d6 bc
       0.09072361 -0.0020191579 -0.12898277 -0.026216911
000150 1a f2 a2 bd 96 ed 55 3d 58 0f 76 bb 78 0b 93 bd
       -0.079563335 0.052228533 -0.0037545767 -0.07179922
000160 04 8a 1b be e4 d0 02 3d 9b 9c b2 bd 8e 11 65 be
       -0.15189368 0.031937495 -0.087212764 -0.22369978
000170 f4 a4 70 3d a1 99 36 bd 44 c8 74 bd 9f fe 63 3d
       0.05875106 -0.044580106 -0.0597613 0.055662747
000180 61 78 4a be 70 94 33 bd 04 3a 48 bd 0c 25 5a 3e
       -0.19772483 -0.043842733 -0.048883453 0.21303195
000190 e2 28 f2 bd 4e db 65 3d 76 42 34 3e 82 81 3b bd
       -0.11824204 0.05611735 0.17603478 -0.045777805
0001a0 e2 f2 6b 3e 6d 0f e2 bd 2f 45 60 be 64 e1 fd 3d
       0.23041871 -0.110380985 -0.21901391 0.123965055
0001b0 47 42 92 bd ff 66 03 be be 68 86 be 90 ca 34 be
       -0.07141548 -0.12832259 -0.26251787 -0.17655396
0001c0 f5 65 61 3c 0b 39 63 3e 3c 62 b7 3d 12 7c 5e bd
       0.013757219 0.22189729 0.089542836 -0.05431754
0001d0 3c 7a df bd a4 ad 01 bd f4 4d 0e be e7 f1 8e 3b
       -0.10911986 -0.031659737 -0.13896924 0.004362333
0001e0 00 9e a7 bd 29 a1 b1 bc ae 91 a1 bc d9 7b 8b bc
       -0.08184433 -0.021683292 -0.019722786 -0.017026829
0001f0 06 51 64 3d 09 ae fb bd 95 db 34 3d f5 d2 07 bd
       0.055741332 -0.12289054 0.044154722 -0.03316017
000200 d9 d4 2a bd 91 c8 86 3c cf 21 f7 3b e4 f9 82 bc
       -0.041706894 0.01645306 0.007541872 -0.015988298
000210 e6 16 5f be 89 99 06 bd 46 56 a2 bd 5f 80 fa bd
       -0.21786079 -0.032861266 -0.079266116 -0.12231516
000220 91 90 9f bd 7b 0f 8b 3d a8 d9 1f 3e f3 81 2d be
       -0.07791246 0.06790062 0.15610373 -0.16944103
000230 dd 09 ab bd 47 7f 22 3e b0 f6 81 be 91 0f f6 3d
       -0.08351491 0.15868865 -0.2538352 0.12014688
000240 30 9a 70 bd 81 fc 50 bc 2f 64 ba bd 73 a6 20 3d
       -0.058740795 -0.012755514 -0.0910114 0.03922124
000250 04 ad 73 3e 47 17 0e be 7a 1c 0d bd 3f 4e 96 bc
       0.23796469 -0.13876067 -0.034450985 -0.018347858
000260 4e c4 26 3d 50 ac 33 3d 68 de 90 3e c3 2a ed bd
       0.040714554 0.043865502 0.28294683 -0.11580422
000270 ab cc 38 3d a4 52 85 be 97 cf 34 3d ae 37 03 bc
       0.04511706 -0.26039612 0.044143286 -0.008008881
000280 be d6 82 3d d0 4b 70 bd 8a a9 94 be 5e b6 c4 bd
       0.06388615 -0.05866605 -0.29035598 -0.09605096
000290 96 26 9e 3c 92 48 d1 bc 30 29 16 3d 0b da a0 3d
       0.019305509 -0.0255473 0.036660373 0.078540884
0002a0 01 c9 04 be d7 b1 90 bb ff ff 69 be 16 0c 92 3d
       -0.12967302 -0.0044157314 -0.22851561 0.071312115
0002b0 fd ed 1a be 85 c0 74 be d3 8d 85 3d 65 48 13 3e
       -0.15129848 -0.23901565 0.065211914 0.14383085
0002c0 e5 68 8b bb c9 f0 b2 bd 8a 39 da bd 9b cf 28 be
       -0.0042544478 -0.087373324 -0.10655506 -0.16485445
0002d0 8e 22 d1 bd 03 c4 14 bd 9e 5f f3 bd 9e d8 88 bc
       -0.10211669 -0.036319744 -0.11883472 -0.016704854
0002e0 3c ea 5c be 36 c2 08 3c 52 b5 b8 bd a8 08 9b 3b
       -0.21573728 0.008347085 -0.09018959 0.0047312565
0002f0 2a 33 a2 bd f8 f3 12 be 71 b8 d4 b9 f2 a9 2b be
       -0.07919915 -0.14350879 -0.0004057321 -0.16764048
000300 9e d4 43 3e 07 15 26 be c1 fa 35 be 10 88 b4 bd
       0.19124076 -0.16218959 -0.17771436 -0.08815014
000310 95 bb bc bd f6 d0 8b 3c d8 63 98 bd 0f f6 c8 bd
       -0.09215466 0.017067414 -0.07440919 -0.09812557
000320 02 75 fe bd a6 fd f0 be 0c 01 fe 3d 9c fe 89 3d
       -0.12424661 -0.47068518 0.124025434 0.06738016
000330 ba dc 11 bd 37 b1 13 3e 88 9d 7f bd b3 f6 55 3e
       -0.035610892 0.14423071 -0.062406093 0.2089489
000340 ae 62 cb bd 6b 2d 58 bd 12 3b 30 be a8 4b e2 bb
       -0.09930931 -0.05277769 -0.17210034 -0.0069059916
000350 76 c6 01 be 1c 8b 6b bd fe 18 92 be ca 61 71 bd
       -0.12673363 -0.057505712 -0.28534693 -0.05893115
000360 43 b7 0b 3e 43 b3 6e bd b7 fa 56 bc 20 1e 0b 3e
       0.13644128 -0.058276426 -0.0131212985 0.1358571
000370 41 9c ec 3d 27 5d 9a 3d 32 ba 3e 3d 57 68 a0 3d
       0.115532406 0.07537299 0.04656429 0.07832401
000380 42 49 eb bd 0c 0c c6 bd 84 07 12 bd fb 04 d3 bc
       -0.11488582 -0.096702665 -0.0356517 -0.02575921
000390 ec a0 ee bd 47 e8 21 bd fb 0d 8d 3d 47 ce 7c be
       -0.11651787 -0.039528158 0.06887432 -0.24688064
0003a0 c7 02 23 be 78 cf 61 3e 2d 84 45 3d 3a 73 af bd
       -0.15919028 0.220518 0.048221756 -0.085668996
0003b0 ae f1 2a 3e 78 d6 e7 bc 1a a9 cb b9 d1 29 12 3d
       0.16693756 -0.028300509 -0.00038845168 0.03568441
0003c0 d9 91 b9 be 3f c0 b5 3d 48 5a f0 3c 57 69 c1 bd
       -0.36244085 0.08874559 0.029339924 -0.0944392
0003d0 20 1a 87 be 10 26 04 3d 63 67 44 3e b8 1b da 3c
       -0.2638712 0.03226286 0.19180064 0.026624545
0003e0 38 e8 f6 bd 49 78 34 3e 9f 01 0a bd a7 2f a2 bd
       -0.12056011 0.1762401 -0.033692952 -0.07919245
0003f0 df 68 e9 bd bb 73 03 3e 2f dd 75 3d 6f 7a e7 3c
       -0.11396956 0.12837116 0.06002539 0.028256623

fc2.bias f4 [128]
000000 2b 71 5b be 21 25 fc bd 0f 75 a0 3d 49 95 33 be
       -0.21429889 -0.12311769 0.07834827 -0.17537417
000010 8d ff 25 be fb 76 6c 3e 71 84 4c be 6b 3b 38 be
       -0.16210766 0.23092262 -0.19972397 -0.17991416
000020 e9 fe 5e be 57 bd 4f 3e e1 63 f5 bd ae 31 bc 3e
       -0.21776928 0.20287071 -0.11981941 0.36756653
000030 c8 e5 b6 bd 08 d9 ca 3c 65 65 48 be 1b 44 69 be
       -0.08930546 0.024761692 -0.19569929 -0.22779886
000040 f5 0a 3e be cd 5c 39 be d0 55 73 bd cb 92 3b be
       -0.18558867 -0.18101807 -0.05940801 -0.18317716
000050 f2 f4 f4 3b 87 15 78 3d e9 b7 33 be 9d c6 67 be
       0.007475489 0.060567405 -0.17550625 -0.22634359
000060 48 db 4c be b3 19 1c 3e ed 26 7b bd 2f 8c 9e be
       -0.20005524 0.15244178 -0.06131642 -0.30966327
000070 9a 63 3d 3d b6 fb 03 3e fb 9d 44 bd f2 67 39 3c
       0.046237566 0.12888989 -0.048002224 0.011316286
000080 8e 84 d6 bd 71 5d 86 bc 0e b5 4c be 09 0e 48 be
       -0.104745016 -0.016401978 -0.19990942 -0.19536604
000090 51 e3 00 be e4 c3 72 3e 9b 66 6a be e5 4c 93 bd
       -0.12586714 0.23707539 -0.22890703 -0.07192401
0000a0 2d 90 85 bb 18 95 2b be cc 47 4b be d0 ab 83 be
       -0.004076025 -0.16756094 -0.19851607 -0.2571702
0000b0 1c 56 27 3e 69 d7 29 be 64 e5 0b be 29 1e 6f bd
       0.16341442 -0.16586079 -0.13661724 -0.058378372
0000c0 3e 83 51 3e 61 0a a7 be de 34 48 be b3 82 5a 3b
       0.20460221 -0.32625106 -0.19551417 0.0033342063
0000d0 79 d0 c8 bc 77 0a a8 3d 1a 21 3d be 8f a1 14 be
       -0.02451347 0.08205121 -0.18469658 -0.14514755
0000e0 ee 6c 6e be 17 e0 8a be ad a9 63 be 91 2f aa 3e
       -0.23283741 -0.27124092 -0.22232695 0.33239415
0000f0 8a a9 c9 3d 06 68 13 3e 42 1d 95 be 20 a6 6d be
       0.0984679 0.1439515 -0.29123884 -0.23207903
000100 4d d6 9f be fc aa 36 be f8 d3 58 be b2 ee 9e bc
       -0.31218186 -0.17838663 -0.2117461 -0.019400928
000110 bf 5a 1d be 4d 66 73 3d c1 1b a6 be 15 89 54 be
       -0.15366648 0.059423734 -0.3244305 -0.20755418
000120 2c bc 1c 3d c2 65 f9 bd 19 93 45 3e 81 df 39 be
       0.038265392 -0.12177612 0.19294395 -0.18151666
000130 38 37 6b be 1c 61 14 be 7b d1 c8 3d 55 a5 90 3e
       -0.22970283 -0.1449017 0.0980558 0.28251138
000140 f6 67 92 3d 75 99 83 3d 77 c6 6a be 3f bc cc 3c
       0.07148735 0.06425754 -0.22927271 0.024992106
000150 ce 41 03 be 7c 30 44 be 68 5e 82 3c df 93 2f 3e
       -0.12818071 -0.1915912 0.015914157 0.17146252
000160 ea 26 30 bd d4 5e df 3d ef bb 0b 3e 65 2c 80 3e
       -0.04300586 0.10906759 0.1364591 0.2503387
000170 2b 9b 8a be 72 44 c3 3d 31 ee 90 be ac 79 ea bd
       -0.2707151 0.09534539 -0.28306726 -0.11448988
000180 f1 df 6c 3e e2 b6 80 3c 06 f5 62 be 4b e1 87 be
       0.23132302 0.015712205 -0.22163782 -0.26539072
000190 92 48 0d 3d 00 fb 88 3e e3 6f a2 be ac b8 1b be
       0.034493037 0.26753998 -0.31725988 -0.15207165
0001a0 23 37 14 be 76 11 59 be 66 2b 89 3d 71 8a 53 be
       -0.14474158 -0.21198067 0.06697731 -0.2065828
0001b0 ee e2 83 be 08 73 84 be 83 6a 13 be 6b c4 2e 3e
       -0.2575907 -0.25869012 -0.143961 0.17067115
0001c0 b0 e0 0e 3e cb 24 3e bd f5 4b 21 be eb be c8 bc
       0.13952899 -0.046421807 -0.15751632 -0.0245051
0001d0 70 97 bd 3d 08 5d 32 3e 3a 13 1f 3e ed ac 98 be
       0.092574 0.17418301 0.15534678 -0.29819432
0001e0 5d 48 bc be 65 c9 af 3d e6 b2 d4 3c 63 8a 1e be
       -0.3677396 0.08583335 0.025964212 -0.15482478
0001f0 9e d9 a2 be 8d 7b 27 be 7f 1c 8a be 0e aa 31 3e
       -0.31806654 -0.16355725 -0.26974866 0.17350027

fc3.weight f4 [1, 128]
000000 ca 74 76 be 47 18 40 be 0a c0 fb 3d 96 f1 34 3e
       -0.24067989 -0.18759261 0.12292488 0.17670283
000010 a2 8b 0e be 94 f7 0c 3e 64 7f 65 be 2c e5 94 bd
       -0.13920453 0.13766319 -0.22411877 -0.072702736
000020 ea 24 13 be 5b 4b 2b 3e f7 76 07 be bb 0d 17 3e
       -0.1436955 0.16727965 -0.13228975 0.14751332
000030 d2 28 94 bd 3c ed 19 3e bd 61 d6 bd c5 d8 88 3e
       -0.07234348 0.15031904 -0.10467861 0.26727882
000040 f1 72 29 be 14 7a 00 be 0d 84 34 3e 7e d3 f4 bd
       -0.16547753 -0.12546569 0.17628498 -0.119544014
000050 4e c9 12 3e 7a 10 e6 3d 61 10 2f be 16 ea 64 be
       0.14334604 0.112336114 -0.17096092 -0.22354922
000060 a2 95 93 3e 6c 00 f8 3d 23 36 ea 3d 6a 92 42 be
       0.28825098 0.121094555 0.11436107 -0.19001165
000070 b1 d8 fa 3d 57 55 f8 3d f1 ea 0d 3e e3 2c ac 3d
       0.12248362 0.12125652 0.13859154 0.08406999
000080 14 c4 55 3e 53 c3 1c 3e 6b 97 b9 be 87 0d 50 be
       0.20875579 0.15308885 -0.36248335 -0.2031766
000090 51 a0 3a 3e b7 fa f4 3d d5 51 76 be a3 8e 12 3e
       0.18225218 0.119618826 -0.24054654 0.14312224
0000a0 ba 77 b3 3d cf e2 53 3e f2 52 2f be b3 01 80 be
       0.087630704 0.2069199 -0.17121485 -0.25001296
0000b0 64 44 d9 3d 71 16 07 be 14 0f 1b be 67 b6 e4 3d
       0.106087476 -0.13192154 -0.1514247 0.11167603
0000c0 f9 55 17 3e bf 62 5e be 06 6a 20 3e 57 1a c0 3d
       0.1477889 -0.21717356 0.15665445 0.09380024
0000d0 20 3f 02 3e 2f 34 eb 3d 85 bb f0 bd 5f 8f cc bd
       0.12719393 0.114845626 -0.117545165 -0.09988283
0000e0 7b 24 6e be ee ad 10 be 84 90 59 be 6e 7c 02 3e
       -0.23256104 -0.14128849 -0.21246535 0.12742779
0000f0 08 55 09 3e 0b b4 0a 3e 94 b9 94 be 12 50 a5 be
       0.13411343 0.13545243 -0.29047835 -0.3228765
000100 ef e2 2f be 3b cd 09 be 57 18 0a be fd 7e e0 3d
       -0.17176412 -0.13457195 -0.13485847 0.10961721
000110 fd ca 80 be 64 fc 11 3e 02 e6 45 be c5 aa 1d be
       -0.25154868 0.14256436 -0.19326022 -0.15397175
000120 66 24 be 3d 7c a3 b1 bd 36 65 c8 3d f9 58 2b be
       0.09284286 -0.0867376 0.097849295 -0.16733159
000130 8a 13 83 be 7b dc 20 3e ba d2 da 3d 04 f0 0c 3e
       -0.25600845 0.15709107 0.10684724 0.13763434
000140 1c e5 c3 3d 8f 04 e6 3d c9 d1 47 be c2 38 c0 3d
       0.095651835 0.11231338 -0.1951362 0.09385826
000150 b7 b2 90 3e 94 21 54 be 8e ea 21 3e dc c2 c8 3d
       0.2826135 -0.20715934 0.15812132 0.098027915
000160 89 3c 32 3e f4 b9 01 3e 3f 35 f8 3d e3 90 fa 3d
       0.17405905 0.12668592 0.12119531 0.12234666
000170 ac 71 03 be 4c 53 20 3e be dc c3 3e 0d f7 f7 3d
       -0.12836331 0.15656775 0.3825435 0.12107668
000180 00 04 d8 3d 64 5c d4 3d 4b d1 07 be 2e 75 7d be
       0.10547638 0.103691846 -0.13263433 -0.24751732
000190 e0 4c 97 3d 89 a9 c2 3d d1 d4 be bd 35 54 67 3e
       0.073877096 0.095049925 -0.09317935 0.22590716
0001a0 f3 87 3b 3e 8c 95 95 bd 60 90 98 3d ff fa 0a be
       0.1831358 -0.073039144 0.07449412 -0.1357231
0001b0 95 41 2c be 2b 00 8a 3e 90 68 3d be f1 c8 e8 3d
       -0.16821893 0.26953253 -0.18496919 0.113664515
0001c0 02 99 b5 3d 03 62 e1 3d b5 95 88 be 59 31 cf 3d
       0.088670745 0.110050224 -0.26676717 0.10116834
0001d0 c5 80 b7 3d 37 8b f5 3d c0 61 3d 3e fe 8c f2 be
       0.08960108 0.11989444 0.1849432 -0.47373194
0001e0 0f a7 50 be 5c ee 42 3e df 57 bd 3d 6d d5 13 3e
       -0.20376228 0.1903624 0.09245276 0.14436884
0001f0 c5 73 14 bf aa 36 0c be 72 c5 57 be be 76 b6 3d
       -0.5798915 -0.13692728 -0.21071413 0.08909367

bn1.weight f4 [128]
000000 eb 1b ab 3e 81 19 26 3f 8d 2b 1d 3f 07 0f e2 3e
       0.33419737 0.64882666 0.6139458 0.4415209
000010 72 95 02 3f 6c 15 8b 3e 42 78 b2 3e d7 e7 ac 3e
       0.51009285 0.2716478 0.34857374 0.3377063
000020 46 70 b5 3e ee 84 46 3f ac 79 37 3f b0 e8 43 3f
       0.3543722 0.77546585 0.7167003 0.7652693
000030 fa 8a 1a 3f 5f 7f f2 3e 3c 9b 89 3f 74 77 06 3f
       0.6036831 0.473628 1.0750499 0.5252602
000040 30 41 13 3e f5 6b 40 3f a1 0e 98 3e b9 f1 c1 3e
       0.14380336 0.7516473 0.2969866 0.37879732
000050 31 ac 0b 3f a1 a2 11 3f 67 6c 11 3f c9 e9 10 3f
       0.5455962 0.56888777 0.56806034 0.5660673
000060 d8 f0 8e 3f a5 39 be 3e d3 ed 40 3f 41 3c b7 3e
       1.116725 0.37153354 0.7536289 0.35788158
000070 fc 0d 05 3f 38 e5 54 3f 58 40 2f 3f c5 04 c6 3e
       0.51974463 0.8316226 0.68457556 0.38675514
000080 6d 21 16 3f 0c 5a 95 3e 46 90 a7 3e ff 58 33 3f
       0.58644754 0.29170263 0.3272726 0.7005767
000090 14 cc 12 3f 5d 4f 25 3f e4 de fd 3e d6 c0 28 3f
       0.5734265 0.64574224 0.49584115 0.65919244
0000a0 29 a1 97 3e 8e 6f 23 3f 5a 4b 58 3f e4 61 f7 3e
       0.29615143 0.63842094 0.8448998 0.48316872
0000b0 1f 02 d3 3e 2d a4 20 3f 94 78 d3 3e d1 e8 14 3f
       0.41212556 0.6275051 0.4130293 0.5816775
0000c0 d9 08 c3 3e 44 92 87 3e 1b 10 e0 3e 2d f5 1d 3f
       0.38092688 0.2647878 0.43762287 0.61702234
0000d0 21 8c 08 3f ea 3a 35 3f a3 61 11 3f 3f 80 e0 3e
       0.5333882 0.7079302 0.56789607 0.43847844
0000e0 54 d5 0a 3f c5 23 d9 3e cf bb 03 3f 62 24 dc 3e
       0.5423176 0.42410102 0.5145845 0.42996508
0000f0 10 f6 0a 3f 31 07 fb 3e 83 51 f2 3e 41 21 d1 3e
       0.5428171 0.49028924 0.47327814 0.40845683
000100 ec eb 65 3f 20 f1 e4 3e 5c 79 42 3f b3 28 d6 3e
       0.89813113 0.44715214 0.7596643 0.41827926
000110 60 b6 10 3f cc 2e 85 3e 9d 41 2e 3f 68 bf 7b 3f
       0.5652828 0.26012266 0.6806887 0.9833894
000120 95 0e e0 3e 34 97 1b 3f dd f4 22 3f e7 8b 97 3e
       0.43761125 0.6077759 0.6365488 0.29598925
000130 d3 53 b3 3e 0f 17 a2 3e dc 8a 12 3f 65 d8 21 3f
       0.3502489 0.31658217 0.5724313 0.63220817
000140 f7 c4 76 3f 5c 40 35 3f 36 ed 85 3e e6 c2 01 3f
       0.96394295 0.7080133 0.2615754 0.50688016
000150 ad b2 63 3e 34 c4 18 3f 92 ad 0b 3f 93 89 ed 3e
       0.22236128 0.5967438 0.5456172 0.46394023
000160 51 71 1d 3f 2b 4c cf 3e 51 82 00 3f 05 22 2e 3f
       0.6150103 0.404878 0.5019885 0.6802066
000170 52 20 c3 3e c2 50 29 3f 26 32 f5 3e 3e b0 f1 3e
       0.38110596 0.6613885 0.47889823 0.47204775
000180 0d ba 42 3f d9 c3 f6 3e 93 c4 28 3f b2 72 df 3e
       0.7606514 0.48196295 0.6592495 0.43642193
000190 a0 c2 25 3f 26 5f c1 3e 04 b2 39 3f ad b4 3d 3f
       0.647501 0.37767905 0.72537255 0.74103814
0001a0 0b f5 05 3f ac 8d 00 3f 0f c9 d1 3e 56 6c ff 3e
       0.5232703 0.50216174 0.40973708 0.4988734
0001b0 90 cb 69 3e 1c ff 72 3f 5a 9a b6 3e ca f2 01 3f
       0.22831559 0.94920516 0.35664636 0.5076109
0001c0 a9 eb 26 3f 87 0c bf 3e a0 3e eb 3e 09 a5 fe 3e
       0.6520334 0.37314245 0.45946217 0.49735287
0001d0 0d 6b 0d 3f 81 b9 f8 3e a2 f0 01 3f e8 f2 2b 3f
       0.5524147 0.48579028 0.507578 0.6716752
0001e0 fb bb d9 3e db cd e4 3e 04 ee c7 3e 86 f3 0f 3f
       0.4252623 0.44688305 0.3904878 0.5623096
0001f0 54 f4 e3 3e 85 46 d4 3e e6 cd a9 3e f7 9c 49 3f
       0.44522345 0.41460052 0.331649 0.78755134

bn1.bias f4 [128]
000000 62 f6 5c 3d 90 9e 12 3e 87 46 d9 bc 12 93 0d 3e
       0.053945906 0.143183 -0.026522888 0.13825634
000010 e4 4e 91 3d 33 66 78 bd 06 23 7d 39 4b d3 ad 3d
       0.07095125 -0.06064434 0.00024141007 0.084875666
000020 fe 81 98 bb 0a c1 44 3e d4 54 39 bd cb 36 64 bd
       -0.004654168 0.19214264 -0.045246914 -0.055716317
000030 8d a6 c0 3d c4 0e 5d bd c0 73 9b 3d 4e 18 af be
       0.09406767 -0.05396916 0.07590437 -0.3419823
000040 ae a3 ad be 6d 15 59 3e 49 79 42 bc 44 b2 1a be
       -0.3391394 0.2119958 -0.011869737 -0.15107065
000050 34 d4 04 3d fb 54 74 3b 47 f9 03 38 c5 2e a7 3e
       0.032428935 0.0037282098 3.146499e-05 0.3265287
000060 58 76 70 3d 3b 68 2a 3e 93 51 da 3c 60 16 df bd
       0.05870661 0.16641323 0.026650226 -0.108929396
000070 8c 9d 79 3c 16 12 80 bc 89 af 6a 3e 88 8f 13 be
       0.015235316 -0.015633624 0.22918524 -0.14410222
000080 05 58 3d be 4b c9 d4 bd e8 37 26 3e e4 b9 ce bd
       -0.18490608 -0.10389956 0.16232264 -0.100940496
000090 84 df 72 3e 84 f1 5c 3e c0 48 b0 3e aa 30 a2 be
       0.23718077 0.21576506 0.34430504 -0.31677753
0000a0 a0 72 d3 3e 0d 36 13 3e 8c 11 3f 3e 7f e5 16 bd
       0.4129839 0.14376087 0.18659037 -0.03683996
0000b0 a9 2f 97 bb ae 82 14 bd 44 59 1b 3e 96 a4 0d be
       -0.004613836 -0.03625744 0.15170771 -0.13832316
0000c0 4e 90 be bd bd fa db bc b0 cd ab 3e 13 f4 bc 3e
       -0.09304868 -0.02685296 0.33555365 0.36904964
0000d0 f6 62 10 3c 5a 2c 5d 3e b4 03 cb 3d 44 fc 8e 3d
       0.008812657 0.2159895 0.09912816 0.069817096
0000e0 10 b7 06 3c a5 c4 45 3e 33 97 85 3d 5e 39 ba 3b
       0.008222356 0.19313295 0.065229796 0.0056831082
0000f0 5b 98 d7 bd 17 9c 38 3e 5a a8 64 3d 9c eb 22 3d
       -0.105271064 0.18028294 0.055824615 0.039775476
000100 c2 b0 9e 3e 5a ce f0 3d 56 11 ee 3d 4c 30 91 3c
       0.3099423 0.117581084 0.116244 0.017723225
000110 8d 10 da 3d e6 71 c6 3d b1 5c a1 3d 68 03 96 bc
       0.10647688 0.09689693 0.078790076 -0.018312171
000120 59 9f ae bd d5 40 be 3d 45 15 9f 3d d6 32 2e be
       -0.08526487 0.092897095 0.07767729 -0.1701158
000130 4c 86 92 3e 98 2e 3c 3e 34 74 8f 3d 42 00 c0 3d
       0.28618085 0.18377149 0.07004586 0.09375049
000140 44 28 27 3e fb be 65 3d 96 68 f0 3d 7a 9c 9b bd
       0.16323954 0.056090336 0.11738698 -0.07598205
000150 19 b7 63 be 73 f5 00 3e 45 3d 3c be 0c a3 78 3e
       -0.22237815 0.12593631 -0.18382747 0.24280947
000160 be 8b 09 3e ec f9 0e 3e 46 e1 39 bd f5 17 98 bc
       0.13432214 0.13962525 -0.045380853 -0.018566111
000170 39 9f a4 3c b8 b5 47 3d 98 30 ea 3d 65 d6 51 bd
       0.020095455 0.048757285 0.1143505 -0.051229853
000180 53 51 bf 3d 23 fd 23 3e 15 3a 07 bd 60 47 46 3e
       0.09341683 0.16014533 -0.033014376 0.19363165
000190 91 ab 87 3e 92 96 42 3d d1 d5 6f 3d 77 8b e5 3c
       0.26498082 0.047506876 0.05855352 0.028020604
0001a0 a5 ca 82 3d cd 5b 1e 3e 5c 94 56 3e c9 2e 9b 3d
       0.063863076 0.15464707 0.20955032 0.07577283
0001b0 1e 0c 15 3e 39 98 97 3d 6a e7 96 3d 76 aa 60 bd
       0.14555404 0.07402081 0.073683575 -0.054850064
0001c0 1e 7c 34 3d 7e 27 eb be 47 cb 46 3e 53 d0 46 bd
       0.04406368 -0.45928568 0.19413482 -0.048538517
0001d0 17 48 6a bd 56 43 83 3d 62 c2 6a 3d ef 22 49 3d
       -0.057197656 0.06409328 0.057314284 0.04910558
0001e0 ce 19 89 bd 44 65 90 bd 02 74 3b 3c 69 fa 7c bd
       -0.06694375 -0.07050565 0.011441233 -0.061762247
0001f0 88 cf 38 be 3e 4a bd 3d 0c 24 35 be 68 15 29 3e
       -0.18047917 0.09242676 -0.17689532 0.16512072

bn1.running_mean f4 [128]
000000 67 c1 d5 3e f1 83 85 3f d9 dc b4 3d 15 82 59 3d
       0.41749117 1.043089 0.08831186 0.05310257
000010 88 6e cc 3d 73 3e e1 3e 77 4d 09 3d 59 ec 0b 3e
       0.0998202 0.43992957 0.03352114 0.13664378
000020 40 94 4d 3e 5e 45 85 3e ce ac b4 3e 6d 10 5f 3e
       0.20076084 0.26029485 0.3528809 0.2178361
000030 e0 02 40 3e df ae 34 3d 87 a8 38 3e 91 46 88 3e
       0.18751097 0.044112083 0.18033038 0.26616338
000040 fb a1 02 3e 4f 99 82 3e 7b 9a 94 3e 16 25 f9 3d
       0.12757103 0.2550759 0.2902411 0.12165277
000050 9f 73 1c 3e 48 b2 09 3f 00 cf 71 3d 00 9e 12 3f
       0.15278481 0.5378766 0.0590353 0.5727234
000060 71 eb 16 3e df 39 39 3d a3 55 29 3e 34 8b 8b 3d
       0.14738251 0.045221206 0.16536574 0.0681366
000070 e0 27 02 3e 8d d1 93 3e b2 ee 0b 3e 95 fb 9e 3e
       0.12710524 0.28870812 0.13665274 0.31051317
000080 e9 23 46 3f 72 47 b9 3e 47 d9 41 3d d4 96 7e 3e
       0.77398545 0.3618732 0.047326352 0.24862224
000090 6f fb ee 3e 9a 54 51 3f b4 26 88 3f c2 e7 9a 3e
       0.46676204 0.81769717 1.0636811 0.30254942
0000a0 bd d0 34 3d 4d 83 8e 3d 6b f0 8e 3e 92 74 b6 3d
       0.04414438 0.069586374 0.279178 0.08908953
0000b0 00 fb 4f 3f a5 ba a3 3e 37 8a 75 3e b6 57 7a 3e
       0.8124237 0.31978336 0.23978506 0.24447522
0000c0 6a 31 a1 3d 4a 7b e2 3d 0c ee e5 3e 8d de c6 3e
       0.07870753 0.11058672 0.44908178 0.38841668
0000d0 88 cd 47 3e 3b c9 85 3e 03 a2 a2 3d 03 1f 67 3d
       0.19511998 0.2613009 0.079410575 0.05642606
0000e0 1d e7 19 3e b7 e4 2b 3e 26 9c de 3d c3 8d c6 3d
       0.15029569 0.16786467 0.10869627 0.09695008
0000f0 0a 14 3f 3e 65 bf ba 3e 82 ac 5d 3d 8c 85 0d 3e
       0.18659988 0.36474147 0.054119594 0.13820475
000100 2f a2 4b 3e bd a0 9c 3e 1f 63 45 3e 36 34 48 3e
       0.19886087 0.30591384 0.19276093 0.19551167
000110 2d ec 53 3e 20 b7 46 3d 81 16 c7 3e b6 3b bb 3e
       0.20695563 0.048514485 0.38884357 0.36568993
000120 4f 94 ce 3d df 9c 4a 3e 68 25 c0 3e c0 0c 78 3d
       0.10086881 0.19786404 0.3752854 0.060559034
000130 e6 d7 0f 3e d7 36 87 3d 57 1c 4d 3e 2c 13 7d 3e
       0.14047202 0.06602257 0.20030342 0.24714345
000140 c7 25 54 3e cf 03 94 3e 05 62 35 3d 53 7a 97 3e
       0.20717536 0.28909156 0.04428293 0.29585513
000150 e2 80 f8 3d a6 bc 6c 3e 5a c5 c8 3e 9c 8d f5 3d
       0.121339574 0.23118839 0.39213067 0.119899005
000160 29 74 6d 3e 49 47 ca 3e dd 51 2e 3f f3 a9 c8 3e
       0.23188843 0.3950751 0.68093663 0.3919216
000170 5f a6 b8 3e de a6 e7 3d 31 da 0a 3f 95 0c 30 3e
       0.3606443 0.11311124 0.54239184 0.171923
000180 5e d0 d7 3e 5d 38 25 3f a2 60 c1 3e 74 b1 40 3e
       0.4215116 0.6453913 0.37769037 0.18817693
000190 de 44 89 3d ac dc 54 3e b1 4b 1f 3e 7d 2c 84 3e
       0.067025885 0.20787305 0.15556218 0.25815192
0001a0 7e a6 8a 3d ab 11 07 3f 0e 0c da 3d aa a2 a9 3d
       0.06770037 0.52761334 0.106468305 0.08282979
0001b0 ba 16 94 3d ca f6 00 3e d2 25 28 3e 3f fd 4c 3e
       0.07230897 0.12594143 0.16420677 0.2001848
0001c0 5b 1d 23 3e 5e 07 ec 3d 7b c6 04 3f 04 95 e4 3e
       0.15929167 0.11524843 0.5186536 0.4464494
0001d0 e1 8f 00 3e fd d9 c5 3e d1 b0 b6 3d 53 c3 c9 3e
       0.12554885 0.38642874 0.08920444 0.39406833
0001e0 37 48 9a 3e 74 0c 8a 3d 25 56 51 3e 4f 80 3f 3e
       0.3013322 0.067406565 0.20443018 0.1870129
0001f0 7e 96 3c 3f f1 2b dc 3e 41 d4 8e 3d 39 4d cf 3d
       0.7366713 0.43002275 0.06974078 0.10122151

bn1.running_var f4 [128]
000000 83 30 9f 3e 30 1e 9e 3e 8c 46 41 3d e9 a8 09 3d
       0.310917 0.30882406 0.04718642 0.03360835
000010 67 3e b9 3d 4b 68 3b 3e 08 bf ec 3c d9 ed 85 3d
       0.090451054 0.18301503 0.028899685 0.065395065
000020 f7 82 1e 3e 3b 82 33 3e f7 0f 86 3e 99 40 01 3e
       0.15479647 0.17530148 0.26184055 0.12622298
000030 8d 0d 06 3e 3e 78 c0 3c d3 f9 e7 3d 06 54 23 3e
       0.13091107 0.023494836 0.11326947 0.15950021
000040 8b 12 f6 3d 4e c4 3b 3e af 51 6f 3e fe 97 9c 3d
       0.120152555 0.18336603 0.23371004 0.07646178
000050 d3 24 aa 3d 2b 24 34 3e f5 b4 e0 3c de dc 3c 3e
       0.08307805 0.17591922 0.027430037 0.18443629
000060 f7 c0 d3 3d 98 98 b4 3c f1 7e c6 3d fe 09 47 3d
       0.103395395 0.022045419 0.09692181 0.048593514
000070 9d 7a 9a 3d 3e 3c 57 3e bf d5 9e 3d 87 fc 8f 3e
       0.07542918 0.21019074 0.077556126 0.2812235
000080 c7 6f 8c 3f 80 cd 96 3e 77 71 cf 3c 84 88 27 3e
       1.0971612 0.2945366 0.025322659 0.1636067
000090 c9 c5 3b 3e bf 0c 84 3f 28 01 9f 3f 83 29 56 3e
       0.18337168 1.031639 1.2422228 0.20914273
0000a0 a9 a9 f5 3c c8 49 4d 3d c8 43 49 3e 05 46 29 3d
       0.029988127 0.05011919 0.19654763 0.04132654
0000b0 26 f5 25 3f 1b bc 60 3e eb f7 38 3e 93 35 15 3e
       0.6482719 0.21946757 0.18063323 0.14571218
0000c0 e1 d9 32 3d 43 34 89 3d 0d 4d 6f 3e 1b 17 3c 3e
       0.043664817 0.06699421 0.23369236 0.18368189
0000d0 69 3c af 3d a9 c6 5c 3e a9 4d 3a 3d f0 e9 e8 3c
       0.08556444 0.21560158 0.04548422 0.028431863
0000e0 fa d2 c5 3d 37 ef db 3d 7e 49 ae 3d 63 8b 3b 3d
       0.09659381 0.10738986 0.08510111 0.045787226
0000f0 4e fb 3f 3e de fa 05 3e 5d a3 bd 3c 71 4a e3 3d
       0.18748209 0.1308398 0.023149187 0.11098183
000100 03 53 e9 3d d3 61 2b 3e 3c a0 17 3e 77 ea 3d 3e
       0.11392786 0.16736536 0.14807218 0.18546472
000110 1d b1 1c 3e 0d ca d1 3c 1f 84 ad 3d 7b 4c 66 3e
       0.15301938 0.02560904 0.08472466 0.22490112
000120 3a 88 48 3d 63 32 d4 3d c1 08 04 3e 46 31 37 3d
       0.04895804 0.10361173 0.12893964 0.044724725
000130 45 0e b1 3d 66 db 39 3d 8d f2 f5 3d 8b 32 1a 3e
       0.086453 0.04537525 0.120091535 0.15058343
000140 88 a4 16 3e 87 fd 3b 3e 18 15 d8 3c 99 60 46 3e
       0.14711201 0.18358432 0.026377246 0.19372787
000150 3d 07 b0 3d 04 5a 2e 3e 1f 2f a4 3e fd 1f bd 3d
       0.085951306 0.17026526 0.320672 0.09234617
000160 97 08 59 3e 82 aa 9a 3e 88 b1 d8 3e 3d 43 62 3e
       0.21194683 0.30208212 0.42322946 0.22095962
000170 f5 3e 57 3e d5 19 32 3d 91 d8 4b 3e 75 95 c5 3d
       0.2102011 0.043481667 0.19906832 0.09647647
000180 de 59 72 3e 3d bf 4c 3f 9f bf 98 3e 02 9c a9 3d
       0.23667094 0.79979306 0.29833695 0.08281709
000190 5b dc f6 3c ce 64 e9 3d 7c eb c0 3d 76 52 5c 3e
       0.03013437 0.1139618 0.09419915 0.21515831
0001a0 0e e3 0f 3d da 72 07 3f a1 73 e7 3d 84 7a 0a 3d
       0.035128646 0.52909625 0.11301351 0.033808246
0001b0 25 a6 94 3d 27 ad 8c 3d af 73 43 3e 31 a4 c9 3d
       0.07258252 0.06868964 0.19087099 0.0984577
0001c0 ad b7 a5 3d 1c f1 56 3d 1d 28 bf 3e e1 5c b5 3e
       0.08091674 0.052476034 0.37335292 0.35422423
0001d0 1d b4 5c 3d e6 6c 28 3e 77 be 28 3d df 3f 45 3e
       0.053882707 0.16447791 0.041197266 0.19262646
0001e0 6d a5 5c 3e dd 07 10 3d 02 ef 00 3e ba 20 fb 3d
       0.2154748 0.03516375 0.12591174 0.122621015
0001f0 29 53 90 3e 1c 14 58 3e cc 25 0d 3d 34 15 58 3d
       0.28188446 0.21101421 0.034459874 0.052754596

bn2.weight f4 [128]
000000 7a 09 c5 3e 60 35 e7 3d d5 cc 55 3f 3f 58 50 3f
       0.38483793 0.11289477 0.83515674 0.8138465
000010 dc c9 66 3e 4e 2f 69 3f 65 67 48 3f 88 a7 b0 3e
       0.2253794 0.91087806 0.7828277 0.34502816
000020 58 19 14 3f 6c 3f dc 3e 66 00 01 3f 5c 72 01 3f
       0.5785117 0.43017137 0.5039123 0.50565124
000030 58 4c af 3d 20 a9 44 3d 44 e3 cc 3e 42 48 a2 3e
       0.08559483 0.048012853 0.4001714 0.31695753
000040 8f 39 49 3f 20 d5 4f 3f 54 d6 4d 3e 27 9b 4c 3f
       0.7860345 0.8118458 0.20101291 0.79924244
000050 00 e3 dc 3e d3 8d 2c 3f d4 ca 3e 3f af 53 4d 3f
       0.43141937 0.67403907 0.7452824 0.80205816
000060 34 d7 36 3f e6 43 6b 3f 4d 31 58 3f c8 77 5f 3f
       0.71422124 0.9190048 0.8445023 0.87292147
000070 7a f8 f9 3e ec 9a a2 3e 74 4c 46 3f b5 ef 2b 3f
       0.48822385 0.3175882 0.7746041 0.6716264
000080 a1 0d 31 3f 19 de 27 3f 78 90 8c 3d d1 a8 58 3f
       0.6916142 0.6557327 0.06863493 0.84632593
000090 8e 50 96 3e cc 9c 0e 3f 10 4a 29 3d be d8 09 3f
       0.29358333 0.55708003 0.041330397 0.5384635
0000a0 c6 fd 8c 3e 56 7b 51 3f ae 4f aa 3e 14 47 44 3f
       0.27537364 0.8182882 0.33263916 0.76670957
0000b0 55 b2 78 3f b8 85 f2 3e 08 8d 9b 3e 80 7d 29 3d
       0.97147113 0.47367644 0.30381036 0.04137945
0000c0 66 68 e2 3e 8b 04 11 3f ba a3 47 3f 1e 5f 2a 3f
       0.44220275 0.5664756 0.779842 0.6655139
0000d0 f7 7e 39 3f 0a 10 f2 3e e2 0d d4 3e 12 71 aa 3e
       0.7245936 0.47277862 0.41416842 0.3328939
0000e0 82 d7 d6 3e 73 46 6c 3f 12 01 19 3f e0 d3 8f 3c
       0.41961294 0.92294997 0.5976726 0.017557085
0000f0 40 1a ed 3c a4 b4 d5 3e fa 46 df 3e 8e a6 2b 3f
       0.028943181 0.4173938 0.43608838 0.6705102
000100 5a 36 e3 3e e3 b9 53 3f f7 99 17 3f 10 9d 33 3f
       0.44377404 0.82705516 0.59219307 0.70161533
000110 d6 f5 b3 3e 68 06 65 3e 2c ac cd 3e 64 28 3e 3e
       0.35148495 0.22365725 0.4017042 0.18570095
000120 97 1c 7a 3f 20 a6 07 3d 28 fc 27 3e f0 25 1b 3d
       0.97699875 0.033117414 0.16404784 0.037877977
000130 80 65 f7 3b 32 f3 7b 3f 23 95 7e 3f ae de ab 3e
       0.0075499415 0.9841796 0.99446315 0.3356833
000140 35 f2 76 3f 70 39 89 3e da f8 ae 3e c6 fe 72 3f
       0.9646333 0.26801634 0.34174234 0.94920003
000150 07 83 14 3f 98 8c fa 3e 1a 31 f0 3e 9e f2 4d 3f
       0.5801243 0.4893539 0.46912462 0.8044833
000160 f6 88 35 3f 9e c9 38 3f 38 c4 f9 3d 74 8b 6e 3e
       0.7091211 0.72182643 0.12195629 0.23295385
000170 eb cb 76 3f c8 fb ff 3e f0 d3 e9 3d 9c e3 9f 3e
       0.96404904 0.4999678 0.11417377 0.3122834
000180 6f be 37 3f 1b 08 7a 3f 8e 7f 90 3e 00 03 ec 3d
       0.71774954 0.9766862 0.28222317 0.1152401
000190 2d b6 37 3f 43 11 25 3f 80 41 ef 3e 68 92 41 3e
       0.71762353 0.64479464 0.4672966 0.18903506
0001a0 3c 8a 39 3e 01 0d 56 3f a3 1f 27 3f b4 b5 99 3e
       0.18119138 0.8361359 0.6528265 0.3002144
0001b0 44 f5 bf 3e f4 89 20 3f 32 a6 2c 3f f8 84 41 3f
       0.3749181 0.627105 0.67441094 0.7559352
0001c0 d2 1d 16 3f f4 1d 5b 3e 73 8c 15 3f e0 98 4f 3d
       0.5863925 0.21398145 0.58417434 0.050682902
0001d0 b0 1f 7c 3d 79 28 5b 3f 00 34 d5 3d 03 00 07 3f
       0.061553657 0.8560863 0.10410309 0.5273439
0001e0 94 ed 4b 3e 31 b0 3e 3f 90 44 94 3d 50 14 17 3d
       0.19914848 0.74487597 0.0723964 0.036884606
0001f0 0b ca 4c 3f f0 cb 05 3e c0 55 a7 3c 22 32 53 3f
       0.79995793 0.13066077 0.020426631 0.8249837

bn2.bias f4 [128]
000000 00 00 00 00 00 00 00 00 00 00 00 00 00 00 00 00
       0.0 0.0 0.0 0.0
000010 00 00 00 00 00 00 00 00 00 00 00 00 00 00 00 00
       0.0 0.0 0.0 0.0
000020 00 00 00 00 00 00 00 00 00 00 00 00 00 00 00 00
       0.0 0.0 0.0 0.0
000030 00 00 00 00 00 00 00 00 00 00 00 00 00 00 00 00
       0.0 0.0 0.0 0.0
000040 00 00 00 00 00 00 00 00 00 00 00 00 00 00 00 00
       0.0 0.0 0.0 0.0
000050 00 00 00 00 00 00 00 00 00 00 00 00 00 00 00 00
       0.0 0.0 0.0 0.0
000060 00 00 00 00 00 00 00 00 00 00 00 00 00 00 00 00
       0.0 0.0 0.0 0.0
000070 00 00 00 00 00 00 00 00 00 00 00 00 00 00 00 00
       0.0 0.0 0.0 0.0
000080 00 00 00 00 00 00 00 00 00 00 00 00 00 00 00 00
       0.0 0.0 0.0 0.0
000090 00 00 00 00 00 00 00 00 00 00 00 00 00 00 00 00
       0.0 0.0 0.0 0.0
0000a0 00 00 00 00 00 00 00 00 00 00 00 00 00 00 00 00
       0.0 0.0 0.0 0.0
0000b0 00 00 00 00 00 00 00 00 00 00 00 00 00 00 00 00
       0.0 0.0 0.0 0.0
0000c0 00 00 00 00 00 00 00 00 00 00 00 00 00 00 00 00
       0.0 0.0 0.0 0.0
0000d0 00 00 00 00 00 00 00 00 00 00 00 00 00 00 00 00
       0.0 0.0 0.0 0.0
0000e0 00 00 00 00 00 00 00 00 00 00 00 00 00 00 00 00
       0.0 0.0 0.0 0.0
0000f0 00 00 00 00 00 00 00 00 00 00 00 00 00 00 00 00
       0.0 0.0 0.0 0.0
000100 00 00 00 00 00 00 00 00 00 00 00 00 00 00 00 00
       0.0 0.0 0.0 0.0
000110 00 00 00 00 00 00 00 00 00 00 00 00 00 00 00 00
       0.0 0.0 0.0 0.0
000120 00 00 00 00 00 00 00 00 00 00 00 00 00 00 00 00
       0.0 0.0 0.0 0.0
000130 00 00 00 00 00 00 00 00 00 00 00 00 00 00 00 00
       0.0 0.0 0.0 0.0
000140 00 00 00 00 00 00 00 00 00 00 00 00 00 00 00 00
       0.0 0.0 0.0 0.0
000150 00 00 00 00 00 00 00 00 00 00 00 00 00 00 00 00
       0.0 0.0 0.0 0.0
000160 00 00 00 00 00 00 00 00 00 00 00 00 00 00 00 00
       0.0 0.0 0.0 0.0
000170 00 00 00 00 00 00 00 00 00 00 00 00 00 00 00 00
       0.0 0.0 0.0 0.0
000180 00 00 00 00 00 00 00 00 00 00 00 00 00 00 00 00
       0.0 0.0 0.0 0.0
000190 00 00 00 00 00 00 00 00 00 00 00 00 00 00 00 00
       0.0 0.0 0.0 0.0
0001a0 00 00 00 00 00 00 00 00 00 00 00 00 00 00 00 00
       0.0 0.0 0.0 0.0
0001b0 00 00 00 00 00 00 00 00 00 00 00 00 00 00 00 00
       0.0 0.0 0.0 0.0
0001c0 00 00 00 00 00 00 00 00 00 00 00 00 00 00 00 00
       0.0 0.0 0.0 0.0
0001d0 00 00 00 00 00 00 00 00 00 00 00 00 00 00 00 00
       0.0 0.0 0.0 0.0
0001e0 00 00 00 00 00 00 00 00 00 00 00 00 00 00 00 00
       0.0 0.0 0.0 0.0
0001f0 00 00 00 00 00 00 00 00 00 00 00 00 00 00 00 00
       0.0 0.0 0.0 0.0

bn2.running_mean f4 [128]
000000 00 00 00 00 00 00 00 00 00 00 00 00 00 00 00 00
       0.0 0.0 0.0 0.0
000010 00 00 00 00 00 00 00 00 00 00 00 00 00 00 00 00
       0.0 0.0 0.0 0.0
000020 00 00 00 00 00 00 00 00 00 00 00 00 00 00 00 00
       0.0 0.0 0.0 0.0
000030 00 00 00 00 00 00 00 00 00 00 00 00 00 00 00 00
       0.0 0.0 0.0 0.0
000040 00 00 00 00 00 00 00 00 00 00 00 00 00 00 00 00
       0.0 0.0 0.0 0.0
000050 00 00 00 00 00 00 00 00 00 00 00 00 00 00 00 00
       0.0 0.0 0.0 0.0
000060 00 00 00 00 00 00 00 00 00 00 00 00 00 00 00 00
       0.0 0.0 0.0 0.0
000070 00 00 00 00 00 00 00 00 00 00 00 00 00 00 00 00
       0.0 0.0 0.0 0.0
000080 00 00 00 00 00 00 00 00 00 00 00 00 00 00 00 00
       0.0 0.0 0.0 0.0
000090 00 00 00 00 00 00 00 00 00 00 00 00 00 00 00 00
       0.0 0.0 0.0 0.0
0000a0 00 00 00 00 00 00 00 00 00 00 00 00 00 00 00 00
       0.0 0.0 0.0 0.0
0000b0 00 00 00 00 00 00 00 00 00 00 00 00 00 00 00 00
       0.0 0.0 0.0 0.0
0000c0 00 00 00 00 00 00 00 00 00 00 00 00 00 00 00 00
       0.0 0.0 0.0 0.0
0000d0 00 00 00 00 00 00 00 00 00 00 00 00 00 00 00 00
       0.0 0.0 0.0 0.0
0000e0 00 00 00 00 00 00 00 00 00 00 00 00 00 00 00 00
       0.0 0.0 0.0 0.0
0000f0 00 00 00 00 00 00 00 00 00 00 00 00 00 00 00 00
       0.0 0.0 0.0 0.0
000100 00 00 00 00 00 00 00 00 00 00 00 00 00 00 00 00
       0.0 0.0 0.0 0.0
000110 00 00 00 00 00 00 00 00 00 00 00 00 00 00 00 00
       0.0 0.0 0.0 0.0
000120 00 00 00 00 00 00 00 00 00 00 00 00 00 00 00 00
       0.0 0.0 0.0 0.0
000130 00 00 00 00 00 00 00 00 00 00 00 00 00 00 00 00
       0.0 0.0 0.0 0.0
000140 00 00 00 00 00 00 00 00 00 00 00 00 00 00 00 00
       0.0 0.0 0.0 0.0
000150 00 00 00 00 00 00 00 00 00 00 00 00 00 00 00 00
       0.0 0.0 0.0 0.0
000160 00 00 00 00 00 00 00 00 00 00 00 00 00 00 00 00
       0.0 0.0 0.0 0.0
000170 00 00 00 00 00 00 00 00 00 00 00 00 00 00 00 00
       0.0 0.0 0.0 0.0
000180 00 00 00 00 00 00 00 00 00 00 00 00 00 00 00 00
       0.0 0.0 0.0 0.0
000190 00 00 00 00 00 00 00 00 00 00 00 00 00 00 00 00
       0.0 0.0 0.0 0.0
0001a0 00 00 00 00 00 00 00 00 00 00 00 00 00 00 00 00
       0.0 0.0 0.0 0.0
0001b0 00 00 00 00 00 00 00 00 00 00 00 00 00 00 00 00
       0.0 0.0 0.0 0.0
0001c0 00 00 00 00 00 00 00 00 00 00 00 00 00 00 00 00
       0.0 0.0 0.0 0.0
0001d0 00 00 00 00 00 00 00 00 00 00 00 00 00 00 00 00
       0.0 0.0 0.0 0.0
0001e0 00 00 00 00 00 00 00 00 00 00 00 00 00 00 00 00
       0.0 0.0 0.0 0.0
0001f0 00 00 00 00 00 00 00 00 00 00 00 00 00 00 00 00
       0.0 0.0 0.0 0.0

bn2.running_var f4 [128]
000000 00 00 80 3f 00 00 80 3f 00 00 80 3f 00 00 80 3f
       1.0 1.0 1.0 1.0
000010 00 00 80 3f 00 00 80 3f 00 00 80 3f 00 00 80 3f
       1.0 1.0 1.0 1.0
000020 00 00 80 3f 00 00 80 3f 00 00 80 3f 00 00 80 3f
       1.0 1.0 1.0 1.0
000030 00 00 80 3f 00 00 80 3f 00 00 80 3f 00 00 80 3f
       1.0 1.0 1.0 1.0
000040 00 00 80 3f 00 00 80 3f 00 00 80 3f 00 00 80 3f
       1.0 1.0 1.0 1.0
000050 00 00 80 3f 00 00 80 3f 00 00 80 3f 00 00 80 3f
       1.0 1.0 1.0 1.0
000060 00 00 80 3f 00 00 80 3f 00 00 80 3f 00 00 80 3f
       1.0 1.0 1.0 1.0
000070 00 00 80 3f 00 00 80 3f 00 00 80 3f 00 00 80 3f
       1.0 1.0 1.0 1.0
000080 00 00 80 3f 00 00 80 3f 00 00 80 3f 00 00 80 3f
       1.0 1.0 1.0 1.0
000090 00 00 80 3f 00 00 80 3f 00 00 80 3f 00 00 80 3f
       1.0 1.0 1.0 1.0
0000a0 00 00 80 3f 00 00 80 3f 00 00 80 3f 00 00 80 3f
       1.0 1.0 1.0 1.0
0000b0 00 00 80 3f 00 00 80 3f 00 00 80 3f 00 00 80 3f
       1.0 1.0 1.0 1.0
0000c0 00 00 80 3f 00 00 80 3f 00 00 80 3f 00 00 80 3f
       1.0 1.0 1.0 1.0
0000d0 00 00 80 3f 00 00 80 3f 00 00 80 3f 00 00 80 3f
       1.0 1.0 1.0 1.0
0000e0 00 00 80 3f 00 00 80 3f 00 00 80 3f 00 00 80 3f
       1.0 1.0 1.0 1.0
0000f0 00 00 80 3f 00 00 80 3f 00 00 80 3f 00 00 80 3f
       1.0 1.0 1.0 1.0
000100 00 00 80 3f 00 00 80 3f 00 00 80 3f 00 00 80 3f
       1.0 1.0 1.0 1.0
000110 00 00 80 3f 00 00 80 3f 00 00 80 3f 00 00 80 3f
       1.0 1.0 1.0 1.0
000120 00 00 80 3f 00 00 80 3f 00 00 80 3f 00 00 80 3f
       1.0 1.0 1.0 1.0
000130 00 00 80 3f 00 00 80 3f 00 00 80 3f 00 00 80 3f
       1.0 1.0 1.0 1.0
000140 00 00 80 3f 00 00 80 3f 00 00 80 3f 00 00 80 3f
       1.0 1.0 1.0 1.0
000150 00 00 80 3f 00 00 80 3f 00 00 80 3f 00 00 80 3f
       1.0 1.0 1.0 1.0
000160 00 00 80 3f 00 00 80 3f 00 00 80 3f 00 00 80 3f
       1.0 1.0 1.0 1.0
000170 00 00 80 3f 00 00 80 3f 00 00 80 3f 00 00 80 3f
       1.0 1.0 1.0 1.0
000180 00 00 80 3f 00 00 80 3f 00 00 80 3f 00 00 80 3f
       1.0 1.0 1.0 1.0
000190 00 00 80 3f 00 00 80 3f 00 00 80 3f 00 00 80 3f
       1.0 1.0 1.0 1.0
0001a0 00 00 80 3f 00 00 80 3f 00 00 80 3f 00 00 80 3f
       1.0 1.0 1.0 1.0
0001b0 00 00 80 3f 00 00 80 3f 00 00 80 3f 00 00 80 3f
       1.0 1.0 1.0 1.0
0001c0 00 00 80 3f 00 00 80 3f 00 00 80 3f 00 00 80 3f
       1.0 1.0 1.0 1.0
0001d0 00 00 80 3f 00 00 80 3f 00 00 80 3f 00 00 80 3f
       1.0 1.0 1.0 1.0
0001e0 00 00 80 3f 00 00 80 3f 00 00 80 3f 00 00 80 3f
       1.0 1.0 1.0 1.0
0001f0 00 00 80 3f 00 00 80 3f 00 00 80 3f 00 00 80 3f
       1.0 1.0 1.0 1.0
