checkpoint_actor.pth (torch_old, 91477 bytes, 14 tensors)

fc1.weight f4 [128, 33]
0.07041534 -0.14411288 -0.008980975 0.110772274 -0.17687333 0.08989011 -0.3315846 0.06719805
-0.17370905 -0.02026272 -0.014029255 -0.041998513 -0.072802775 -0.06387578 0.10373286 -0.07068541
-0.047018014 -0.15285222 -0.055989716 -0.4776027 -0.033641826 -0.06275636 0.101770274 0.045331955
0.008397859 -0.10691197 0.023655105 0.37427905 -0.11990545 0.033872925 -0.2982065 -0.07625529
0.33838847 -0.043702066 -0.046666708 -0.2577609 -0.052330025 -0.1265032 0.2008845 0.51834935
-0.058683608 -0.09261663 -0.06878583 0.0842277 -0.014147392 -0.041410245 0.15615901 0.058778215
-0.015903745 -0.13601032 0.34495935 -0.049626995 -0.3426755 0.12142786 0.018448949 -0.009266421
0.14264071 0.0020731892 -0.0820202 0.07737335 0.047675386 0.14149 0.057815723 -0.0012348237
0.035640895 -0.3322437 0.031474072 -0.15290456 -0.16109627 -0.35326216 -0.5602637 -0.08443277
-0.38921964 0.026879666 0.05759315 -0.045994047 0.009709856 0.014627338 -0.050516937 0.005571437
-0.08060698 -0.0871713 0.71267086 -0.45277998 0.2748515 0.054805215 -0.07041272 0.039499827
0.011273995 -0.05782005 -0.033759803 -0.0074549643 0.018533297 0.13537003 0.06951307 -0.03849787
-0.16489284 0.038470767 0.08638764 0.12133116 -0.07441365 -0.13029958 0.17739607 -0.13346966
-0.017118797 0.016641548 -0.07648069 -0.10495333 0.06408967 0.009726238 -0.0022293353 -0.017698005
0.020528033 0.05499385 0.013465537 -0.4131616 -0.23671123 -0.1758738 -0.69617015 -0.04500984
0.082717046 0.056938168 0.05548027 -0.010146176 0.036800675 0.05299707 0.106667235 0.076731145
0.025526479 -0.23708901 0.067517616 0.7496465 -0.014754806 -3.4488494e-05 -0.10563809 0.48555896
-0.14596802 0.21959282 0.033378184 0.024489924 -0.15856372 -0.083667375 0.0070045996 -0.016367467
0.022578388 0.027670609 0.0042383885 0.087094285 -0.081385605 -0.17967477 -0.2551928 0.0027295565
-0.035348028 -0.027810793 -0.026821421 -0.045510937 0.013695084 0.063829735 -0.0077631883 0.09347299
-0.011922108 0.07739844 -0.16312958 0.044895925 0.9869218 -0.011582337 0.24922997 0.13683891
-0.07402473 -0.26047093 0.14535354 -0.029643904 -0.05201157 -0.079803735 0.055232253 -0.031536665
-0.022278063 0.07049768 0.020894166 -0.08361105 -0.018327756 -0.3220349 -0.25389445 0.41256642
0.2888813 0.0381985 -0.105204396 -0.027528508 0.053366475 0.03200998 -0.0024733196 0.14794347
0.13032837 -0.08539929 0.05156494 -0.013089808 0.026631922 -0.7867036 -0.024650145 0.06690761
-0.14339562 -0.085251525 0.10146721 0.46299854 -0.4927478 -0.022249736 0.059962455 0.14417708
-0.013575758 0.051558208 -0.032056767 -0.0069872267 -0.034931626 0.10350513 -0.35929355 0.31090048
0.03532573 0.12748505 -0.014406299 -0.041072294 -0.023717947 0.022594545 -0.030225936 0.032329787
-0.019465122 0.32656553 0.20596722 0.0032050386 -0.36079216 0.06472189 0.24083488 -0.014760057
-0.022517703 0.0084876465 -0.18306881 0.08809629 0.123726845 0.15468161 0.08096826 -0.0459723
0.09584709 -0.03725432 0.03774322 -0.05710822 -0.18097909 -0.020366654 0.029626342 -0.23898873
0.010511654 -0.24554068 -0.5034742 -0.083425894 -0.19797343 0.072094105 -0.17415516 0.013131681
00000000: eb35 903d 5492 13be f024 13bc 93dc e23d
00000010: 481e 35be 4e18 b83d 75c5 a9be 229f 893d
00000020: c9e0 31be 01fe a5bc f6da 65bc a206 2cbd
00000030: 9f19 95bd 4ed1 82bd e571 d43d 83c3 90bd
00000040: f695 40bd 4b85 1cbe 7955 65bd 5788 f4be
00000050: 03cc 09bd 6886 80bd ef6c d03d 00ae 393d
00000060: 2c97 093c aaf4 dabd 5ac8 c13c 81a1 bf3e
00000070: fd90 f5bd 56be 0a3d 86ae 98be bc2b 9cbd
00000080: 4141 ad3e f000 33bd 9725 3fbd 3df9 83be
00000090: 0258 56bd 0e8a 01be abb4 4d3e 8bb2 043f
000000a0: 395e 70bd caad bdbd 96df 8cbd 937f ac3d
000000b0: 76ca 67bc ca9d 29bd 26e8 1f3e 6dc1 703d
000000c0: 9248 82bc 4a46 0bbe 839e b03e ad45 4bbd
000000d0: 2a73 afbe 2baf f83d 4022 973c 30d2 17bc
000000e0: 6810 123e 58de 073b 35fa a7bd eb75 9e3d
000000f0: 4447 433d c1e2 103e 2ed0 6c3d cfd9 a1ba
00000100: 30fc 113d d91b aabe f5ea 003d 0393 1cbe
00000110: 6cf6 24be c7de b4be 716d 0fbf 17eb acbd
00000120: cc47 c7be bf32 dc3c cbe6 6b3d 4164 3cbd
00000130: 1616 1f3c 81a7 6f3c d9ea 4ebd 9a90 b63b
00000140: 4615 a5bd de86 b2bd 9971 363f c7d2 e7be
00000150: 56b9 8c3e 6f7b 603d 8b34 90bd 92ca 213d
00000160: 90b6 383c b7d4 6cbd b847 0abd c648 f4bb
00000170: 24d3 973c 719e 0a3e de5c 8e3d f1af 1dbd
00000180: abd9 28be 8693 1d3d 01ec b03d 797c f83d
00000190: 2f66 98bd 416d 05be 51a7 353e 45ac 08be
000001a0: b83c 8cbc db53 883c e8a1 9cbd c5f1 d6bd
000001b0: 7241 833d cd5a 1f3c 0a1a 12bb 68fb 90bc
000001c0: 682a a83c 3b41 613d 8e9e 5c3c eb89 d3be
000001d0: 6e64 72be 4318 34be 3538 32bf 3d5c 38bd
000001e0: 8e67 a93d ff37 693d 483f 633d 263c 26bc
000001f0: 4ebc 163d 7513 593d 5a74 da3d 3825 9d3d
00000200: e81c d13c 76c7 72be ad46 8a3d d5e8 3f3f
00000210: 24be 71bc bda7 10b8 c858 d8bd 2f9b f83e
00000220: a478 15be f1dc 603e 90b7 083d 189f c83c
00000230: 875e 22be cd59 abbd d786 e53b 1115 86bc
00000240: 50f6 b83c 79ad e23c 2ee2 8a3b 7d5e b23d
00000250: 7fad a6bd aafc 37be a1a8 82be 5ce2 323b
00000260: 18c9 10bd 76d3 e3bc 99b8 dbbc ad69 3abd
00000270: 5861 603c 2ab9 823d 5862 febb c46e bf3d
00000280: f254 43bc 1383 9e3d 710b 27be cae4 373d
00000290: e8a6 7c3f d8c3 3dbc 2436 7f3e 801f 0c3e
000002a0: 479a 97bd 725c 85be 8fd7 143e c6d7 f2bc
000002b0: 160a 55bd 2470 a3bd 373b 623d 972c 01bd
000002c0: 7c80 b6bc 1661 903d 3e2a ab3c 453c abbd
000002d0: 1724 96bc c2e1 a4be 74fe 81be e83b d33e
000002e0: 40e8 933e 0876 1c3d 6775 d7bd 7783 e1bc
000002f0: ce96 5a3d e61c 033d 6b17 22bb 7e7e 173e
00000300: cd74 053e d3e5 aebd c235 533d a276 56bc
00000310: 302b da3c 6865 49bf 1aef c9bc db06 893d
00000320: 4dd6 12be 5a98 aebd 0ace cf3d 250e ed3e
00000330: 7149 fcbe 1445 b6bc 319b 753d 28a3 133e
00000340: db6c 5ebc b32e 533d f54d 03bd 1bf5 e4bb
00000350: 7714 0fbd 7ffa d33d 53f5 b7be 592e 9f3e
00000360: b6b1 103d 718b 023e 6608 6cbc 6c3b 28bd
00000370: 244c c2bc 3218 b93c 629c f7bc 3d6c 043d
00000380: 5275 9fbc 9933 a73e 12e9 523e a00b 523b
00000390: c0b9 b8be e98c 843d 6b9d 763e 2bd4 71bc
000003a0: 0c77 b8bc c50f 0b3c 6476 3bbe d46b b43d
000003b0: 8064 fd3d db64 1e3e b0d2 a53d 734d 3cbd
000003c0: 7b4b c43d fc97 18bd a298 1a3d 4fea 69bd
000003d0: 9552 39be f8d7 a6bc f1b2 f23c 76b9 74be
000003e0: 1339 2c3c 046f 7bbe afe3 00bf 32db aabd
000003f0: 8cb9 4abe 13a6 933d bb55 32be 4326 573c

fc1.bias f4 [128]
-0.21435234 0.13828067 -0.16433758 -0.1572217 -0.2030139 -0.038276788 -0.13117975 -0.16496181
-0.29447713 -0.0095859 -0.21582042 -0.1848722 0.50775725 -0.076398045 -0.25361383 0.028467443
-0.14293589 -0.27678308 0.047940824 0.0029648046 -0.30463156 -0.34266466 -0.14174691 -0.10118764
-0.32035646 0.0028796035 -0.082423665 -0.27966315 -0.24060105 -0.06661416 0.14918946 -0.2117415
-0.049215056 -0.2432502 -0.21766797 0.0074235424 -0.23046334 0.19814888 -0.070272475 -0.0372555
-0.17568053 -0.052059624 -0.13688824 0.18620512 -0.24606755 -0.14325729 0.1368273 0.19137125
0.09301883 0.05458571 -0.1517432 0.3119883 -0.011681531 -0.3409206 -0.17163454 -0.032776095
-0.17738967 -0.15290757 -0.031808477 -0.11598376 -0.0063724266 -0.18402344 -0.1437433 -0.30484876
-0.10859061 -0.36512187 -0.11043892 -0.22646464 -0.08443289 0.09301777 -0.08345634 0.2515326
0.16429316 -0.11152206 -0.1805372 -0.25002015 0.008688511 -0.27587932 0.028047597 -0.19791247
-0.22366281 -0.16593005 -0.19199239 0.08281471 -0.08957426 -0.58472836 0.10720425 -0.29406953
-0.03210623 -0.32212448 -0.38831365 0.13202602 -0.38697264 0.039511863 -0.0074554863 -0.19485375
0.13538149 -0.2041449 -0.13583694 0.18695427 -0.1756926 -0.15020345 -0.2544969 0.091292985
0.21774127 -0.0514986 -0.080141105 -0.33998019 0.048905745 -0.076101504 -0.11589468 -0.24356139
-0.020264437 0.01083618 -0.20730135 -0.0040803873 0.112030305 0.08416417 -0.013407402 -0.16024654
-0.22756016 0.048416223 0.087317236 0.24392058 -0.09660024 -0.10115485 -0.12938058 0.035372574
00000000: 2e7f 5bbe 7399 0d3e 1c48 28be bafe 20be
00000010: e0e2 4fbe 1fc8 1cbd fc53 06be c0eb 28be
00000020: b5c5 96be 2e0e 1dbc 0700 5dbe 234f 3dbe
00000030: 61fc 013f 9476 9cbd acd9 81be 8e34 e93c
00000040: c95d 12be 83b6 8dbe 995d 443d 2b4d 423b
00000050: abf8 9bbe be71 afbe 1a26 11be 773b cfbd
00000060: c305 a4be bbb7 3c3b bdcd a8bd 0230 8fbe
00000070: 1f60 76be 016d 88bd 1fc5 183e c4d2 58be
00000080: ba95 49bd 9516 79be 5ae4 5ebe 3041 f33b
00000090: 95fe 6bbe 8ae7 4a3e 04eb 8fbd 3999 18bd
000000a0: 99e5 33be 793c 55bd 6e2c 0cbe 8eac 3e3e
000000b0: 22f9 7bbe 0ab2 12be 751c 0c3e d3f6 433e
000000c0: a880 be3d 4495 5f3d 9262 1bbe eebc 9f3e
000000d0: e463 3fbc 258d aebe f7c0 2fbe 3a40 06bd
000000e0: a3a5 35be cd93 1cbe 9b49 02bd e588 edbd
000000f0: cacf d0bb a470 3cbe 7231 13be 2315 9cbe
00000100: c164 debd 41f1 babe cd2d e2bd 59e6 67be
00000110: 27eb acbd 1a80 be3d 28eb aabd e2c8 803e
00000120: 773c 283e ae65 e4bd bede 38be a402 80be
00000130: 425a 0e3c 0e40 8dbe 13c4 e53c 91a9 4abe
00000140: dd07 65be 91e9 29be a799 44be c29a a93d
00000150: b672 b7bd c2b0 15bf e78d db3d 4890 96be
00000160: d281 03bd 80ed a4be 0cd1 c6be d431 073e
00000170: 4721 c6be 31d7 213d 274d f4bb be87 47be
00000180: 72a1 0a3e 5c0b 51be d718 0bbe f170 3f3e
00000190: c3e8 33be efce 19be 6b4d 82be d1f7 ba3d
000001a0: 91f7 5e3e 32f0 52bd 0521 a4bd e211 aebe
000001b0: 6451 483d 1bdb 9bbd 315a edbd 2868 79be
000001c0: 9b01 a6bc 3c8a 313c ce46 54be c5b4 85bb
000001d0: 2570 e53d 445e ac3d b8aa 5bbc ab17 24be
000001e0: 8805 69be 1750 463d 61d3 b23d 51c6 793e
000001f0: 59d6 c5bd 462a cfbd 587c 04be d5e2 103d

fc2.weight f4 [128, 128]
-0.20687631 0.011228066 0.17280714 -0.18232122 -0.19926634 0.10394507 -0.008940331 -0.31219223
-0.01879429 0.060524903 -0.17084946 -0.019516664 0.017419185 0.19883817 -0.32609305 -0.035791334
-0.17464347 0.037630692 0.16199605 0.24773635 -0.14168762 0.50213444 0.20639095 0.1742049
0.30494782 0.06462552 -0.2861875 -0.023400694 0.04029988 0.36193675 -0.023891948 -0.11013394
-0.0011186685 0.15615602 0.042156447 0.14218277 -0.24030538 -0.003321868 -0.2767273 0.12208127
-0.13418461 -0.06701501 0.31328264 -0.08609669 0.19738536 -0.12285394 -0.19471113 -0.2709265
-0.1854266 -0.09852184 0.07942539 0.0134454025 0.36858308 0.054256212 -0.16638276 -0.38755882
-0.16592515 -0.3821477 0.15392466 -0.021555783 0.1089361 -0.6704416 -0.07694028 -0.03661211
0.072594784 0.22094688 0.113510564 -0.019933185 0.02125147 0.18499345 0.18884373 0.17992556
0.36825025 -0.06731073 0.23033355 -0.19282803 0.16779159 0.03574572 -0.004589887 0.0027117936
0.19249399 -0.19222921 0.17617723 0.3249844 0.24447641 -0.23886564 -0.13642153 -0.33366814
0.16302107 0.1758176 -0.13595794 0.15769166 0.53341526 0.16172187 0.28332147 0.42623836
0.1258256 0.25061694 0.1539698 -0.27265882 -0.07938485 0.06278768 0.12944718 0.18420473
-0.03493601 0.38626575 0.039603703 0.028796228 -0.14062247 -0.0597395 -0.40245587 0.006058046
0.2049094 0.0665681 0.036585856 -0.05034521 -0.039331324 0.17433196 0.1298953 0.108104795
0.22379705 -0.03358899 0.1038603 0.032704394 0.18088472 -0.37563473 -0.42848465 -0.23543835
-0.18042755 -0.07135734 -0.1228124 -0.233577 0.16928242 0.308772 -0.4083731 0.09135747
-0.054439336 -0.12921438 -0.30333108 0.058551297 0.09758108 0.2714396 -0.38638675 -0.24859646
-0.11353957 -0.24968576 -0.08500814 -0.19313149 -0.39026356 0.18841395 -0.17819582 0.09463949
0.20842882 -0.12958694 -0.09080019 0.071797505 -0.42171305 0.03839234 0.32635194 0.036415823
0.27486235 0.13181008 -0.25964642 -0.28847075 0.008731856 -0.026219364 0.19503534 -0.041555863
-0.1833478 0.0072520976 0.2675944 -0.21751289 -0.50020534 -0.04530708 0.16147816 -0.028993236
0.34590387 -0.19810757 0.12091821 0.32203788 0.185124 -0.06711888 0.25928107 0.025108708
-0.19517905 0.04496997 -0.3329679 -0.034697857 -0.1956583 0.08126207 -0.14943296 0.055784825
0.26923683 0.12052445 0.05245902 -0.22080989 0.052101962 0.29615426 -0.012223392 -0.02960399
-0.07988849 -0.13588196 0.18836728 0.25825515 0.19573909 0.12843803 -0.32953733 -0.20704196
0.284254 -0.19011639 0.10072463 0.073951416 0.18311039 -0.15272786 -0.25058353 -0.1444675
0.40918165 0.28162816 -0.48188588 -0.017891254 -0.4559578 0.15406002 0.33563492 0.20808797
0.0027785283 0.06534701 0.37647158 0.062625185 0.23278005 0.13076109 -0.30437198 -0.21055874
0.08135573 -0.054990027 0.40444776 0.049490064 0.17294763 0.09167206 -0.81762433 -0.10730487
0.38136235 0.097973116 0.05832726 -0.3498459 0.33068502 -0.32171622 -0.27305737 -0.25116462
-0.2412195 0.1664152 -0.020121627 -0.35645354 0.30175686 0.016757902 -0.19098477 0.33430338
00000000: 62d7 53be ecf5 373c 5bf4 303e 6ab2 3abe
00000010: 7a0c 4cbe 27e1 d43d 777a 12bc a9d7 9fbe
00000020: 7cf6 99bc f6e8 773d 29f3 2ebe 69e1 9fbc
00000030: aeb2 8e3c 3c9c 4b3e abf5 a6be ef99 12bd
00000040: bdd5 32be a422 1a3d 4be2 253e 99ae 7d3e
00000050: 8f16 11be e28b 003f 2658 533e c562 323e
00000060: 1f22 9c3e 625a 843d 2b87 92be d0b2 bfbc
00000070: 7d11 253d c64f b93e 0cb9 c3bc e78d e1bd
00000080: 49a0 92ba 5de7 1f3e 3dac 2c3d 5c98 113e
00000090: 9d12 76be b2b3 59bb 33af 8dbe bf05 fa3d
000000a0: b167 09be 2a3f 89bd 9566 a03e 7653 b0bd
000000b0: 631f 4a3e d99a fbbd 5b62 47be e1b6 8abe
000000c0: 78e0 3dbe d2c5 c9bd c7a9 a23d 1b4a 5c3c
000000d0: ecb6 bc3e c33b 5e3d 3e60 2abe 1c6e c6be
000000e0: 48e8 29be dda8 c3be 6d9e 1d3e c195 b0bc
000000f0: e419 df3d 10a2 2bbf de92 9dbd 94f6 15bd
00000100: 93ac 943d e63f 623e 3a78 e83d eb4a a3bc
00000110: 9017 ae3c ec6e 3d3e 4060 413e 683e 383e
00000120: 4c8b bc3e 35da 89bd 8fdc 6b3e b674 45be
00000130: 8fd1 2b3e 1b6a 123d c366 96bb 59b8 313b
00000140: 251d 453e bcd7 44be ce67 343e 5b64 a63e
00000150: 0658 7a3e 3299 74be 16b2 0bbe 8dd6 aabe
00000160: ffee 263e 8709 343e 8f38 0bbe ec79 213e
00000170: e78d 083f 6b9a 253e 830f 913e ea3b da3e
00000180: 6dd8 003e dd50 803e 42aa 1d3e f099 8bbe
00000190: 8694 a2bd d496 803d cd8d 043e 2aa0 3c3e
000001a0: 1019 0fbd a0c4 c53e 7e37 223d 11e6 eb3c
000001b0: 56ff 0fbe 68b1 74bd b20e cebe 9382 c63b
000001c0: c5d3 513e db54 883d 0ddb 153d c736 4ebd
000001d0: e219 21bd 1484 323e 4603 053e 0c66 dd3d
000001e0: 0e2b 653e 9c94 09bd b5b4 d43d 0bf5 053d
000001f0: d839 393e 3253 c0be 5762 dbbe c016 71be
00000200: 00c2 38be cc23 92bd 1185 fbbd cf2e 6fbe
00000210: 5f58 2d3e 5d17 9e3e 4716 d1be a019 bb3d
00000220: c8fb 5ebd c650 04be 364e 9bbe 7cd3 6f3d
00000230: 97d8 c73d 22fa 8a3e 7cd4 c5be 1290 7ebe
00000240: 6f87 e8bd a0ad 7fbe bf18 aebd 43c4 45be
00000250: a0d0 c7be 96ef 403e f778 36be 59d2 c13d
00000260: 5d6e 553e 70b2 04be 73f5 b9bd 920a 933d
00000270: c6ea d7be 4941 1d3d 9a17 a73e c228 153d
00000280: c2ba 8c3e 39f9 063e 60f0 84be 70b2 93be
00000290: 0f10 0f3c fec9 d6bc 58b7 473e 7b36 2abd
000002a0: 87bf 3bbe 01a3 ed3b 2202 893e b3bb 5ebe
000002b0: 750d 00bf eb93 39bd 885a 253e 3983 edbc
000002c0: 501a b13e b6dc 4abe f7a3 f73d 26e2 a43e
000002d0: 2591 3d3e a075 89bd 7dc0 843e c7b0 cd3c
000002e0: 04dd 47be 6e32 383d c57a aabe 571f 0ebd
000002f0: a65a 48be ba6c a63d f404 19be a17e 643d
00000300: 69d9 893e 86d5 f63d 45df 563d fd1b 62be
00000310: de68 553d 88a1 973e 9f44 48bc 1184 f2bc
00000320: 949c a3bd a424 0bbe 5ae3 403e 053a 843e
00000330: d46f 483e 4285 033e 1eb9 a8be cf02 54be
00000340: be89 913e dfad 42be b748 ce3d d773 973d
00000350: 4a81 3b3e b164 1cbe 7c4c 80be 4aef 13be
00000360: 4280 d13e 9131 903e bfb9 f6be ae90 92bc
00000370: 4d73 e9be e9c1 1d3e 57d8 ab3e 0315 553e
00000380: f817 363b a7d4 853d e2c0 c03e a241 803d
00000390: e55d 6e3e 3ce6 053e a5d6 9bbe b69c 57be
000003a0: d59d a63d 393d 61bd c713 cf3e 18b6 4a3d
000003b0: 2f19 313e 90be bb3d d44f 51bf a8c2 dbbd
000003c0: ed41 c33e 21a6 c83d 91e8 6e3d 001f b3be
000003d0: 8c4f a93e fdb7 a4be 2dce 8bbe a698 80be
000003e0: 3f02 77be bf68 2a3e 1cd6 a4bc 1481 b6be
000003f0: e07f 9a3e de47 893c 8391 43be d029 ab3e

fc2.bias f4 [128]
0.06902641 -0.16796696 -0.10718892 0.23060125 -0.3142773 -0.095704414 0.019581787 0.050247543
-0.0136208115 -0.058394812 -0.15435342 -0.094824426 -0.14583302 0.13448344 -0.03751621 -0.17528133
-0.16491243 0.032040354 -0.17576891 -0.11543802 -0.23675925 -0.14980088 -0.061184917 -0.010932091
-0.22352722 -0.097468 -0.12835866 0.08972685 -0.14119013 0.221273 -0.00015538746 -0.007652263
-0.032629386 0.013118909 -0.45422098 -0.10151036 -0.0746745 -0.048754692 -0.064543255 0.24159239
0.0127529465 -0.27882916 -0.18053013 -0.289017 -0.29690233 -0.32798618 -0.07340512 -0.13802232
0.06256456 -0.37853307 0.12378866 0.05931488 -0.1909737 -0.11462116 -0.32013494 -0.17419977
-0.047927964 -0.24351212 0.073628515 -0.052573137 0.17791452 -0.13769019 0.14246775 -0.12838978
-0.008740691 -0.20671615 -0.29151613 -0.14741355 -0.15414695 0.001391265 -0.26010874 -0.3654433
-0.18343793 -0.3087784 -0.08212415 -0.118284754 -0.124001645 -0.12189937 -0.4101754 -0.015559225
0.16029623 -0.18257627 -0.22153188 0.020497149 -0.21208104 -0.10401173 -0.07009201 -0.14001624
-0.029666174 -0.05644885 -0.04164544 0.099564105 -0.007877654 0.017102202 -0.01360477 -0.21972597
-0.2765585 -0.17216611 -0.045740366 0.059576087 0.07546232 -0.12475794 0.052356906 -0.15682203
-0.009365388 -0.16343154 -0.27390385 -0.1513848 -0.1396923 -0.046316184 -0.16864154 -0.10203425
0.23809111 0.03824856 -0.12344922 -0.08850867 0.02309532 -0.040276147 0.15803455 -0.120658636
0.1704798 -0.15623714 -0.009457957 0.0062086093 -0.2219474 0.14072116 0.009237596 -0.09993785
00000000: b85d 8d3d 88ff 2bbe dd85 dbbd bc22 6c3e
00000010: f4e8 a0be ad00 c4bd fc69 a03c 5ed0 4d3d
00000020: d329 5fbc 662f 6fbd d30e 1ebe 4f33 c2bd
00000030: 4055 15be 07b6 093e 99aa 19bd f37c 33be
00000040: cede 28be bf3c 033d c4fc 33be c56a ecbd
00000050: 0471 72be 6765 19be 099d 7abd 831c 33bc
00000060: 52e4 64be 4e9d c7bd 7470 03be b6c2 b73d
00000070: 2594 10be 6495 623e 81ef 22b9 d6bf fabb
00000080: 64a6 05bd b1f0 563c a78f e8be aae4 cfbd
00000090: f2ee 98bd 00b3 47bd 412f 84bd ff63 773e
000000a0: bcf1 503c b2c2 8ebe e4dc 38be 09fa 93be
000000b0: 9503 98be ceed a7be 6c55 96bd b955 0dbe
000000c0: d921 803d 16cf c1be e984 fd3d 29f4 723d
000000d0: 9c8e 43be 80be eabd bae8 a3be 6d61 32be
000000e0: 1d50 44bd 3e5b 79be 8cca 963d ee56 57bd
000000f0: 392f 363e a8fe 0cbe 11e3 113e 9c78 03be
00000100: 1d35 0fbc 66ad 53be 9a41 95be 94f3 16be
00000110: b3d8 1dbe 1b5b b63a f92c 85be 621b bbbe
00000120: 27d7 3bbe 3418 9ebe b530 a8bd 473f f2bd
00000130: 93f4 fdbd 60a6 f9bd 8302 d2be 1fec 7ebc
00000140: b224 243e 46f5 3abe 41d9 62be a3e9 a73c
00000150: c62b 59be 1a04 d5bd 668c 8fbd 6b60 0fbe
00000160: 7a06 f3bc e936 67bd 6994 2abd 44e8 cb3d
00000170: 4711 01bc eb19 8c3c 8be6 5ebc d8ff 60be
00000180: 1399 8dbe 504c 30be 405a 3bbd 0e06 743d
00000190: fd8b 9a3d 1781 ffbd 3274 563d f495 20be
000001a0: 4971 19bc 995a 27be 203d 8cbe 9e04 1bbe
000001b0: 800b 0fbe 0ab6 3dbd 5eb0 2cbe 55f7 d0bd
000001c0: 28ce 733e 86aa 1c3d f2d2 fcbd 0944 b5bd
000001d0: 6632 bd3c 9af8 24bd cfd3 213e e01b f7bd
000001e0: 4292 2e3e a1fc 1fbe 8cf5 1abc 9771 cb3b
000001f0: 2e46 63be 3519 103e 4959 173c 37ac ccbd

fc3.weight f4 [4, 128]
-0.041983563 0.036542498 -0.3501279 0.3152397 0.22476284 -0.5405902 -0.5255174 -0.15688214
-0.022011593 0.47811657 0.1254128 -0.249476 -0.02844831 -0.027822072 -0.44599575 0.37767887
-0.12670171 0.22433454 -0.44182053 0.43265933 0.34254783 0.5976347 0.5829252 -0.41744998
0.48854566 0.3132839 -0.68291575 0.17097303 0.57788163 -0.25962254 -0.33239743 0.52369237
-0.6030318 -0.27722228 0.67013574 -0.12289628 -0.078830265 0.025138907 -0.048406877 0.3385614
-0.90261984 0.25843725 0.5180955 -0.01735662 -0.559387 -0.2610869 0.39551392 -0.14344072
-0.70167404 -0.06625503 -0.2600292 0.5110128 -0.3715389 0.92263746 -0.51580876 -0.45833075
0.091901794 -0.050263982 0.19361039 0.1246839 0.021592198 0.47441596 0.009168791 -0.15359174
-0.10430257 0.37234834 -0.045340423 0.55779165 -0.32304448 0.16439329 0.18205823 -0.31355736
-0.15465833 0.16907226 0.8322485 -0.03373056 -0.59460074 0.21082038 -0.22846307 0.5233107
-0.65240926 -0.053676486 0.10871686 -0.25215954 -0.31186232 0.69467 -0.009960708 0.4683859
-0.09399403 -0.48353666 0.2463944 0.30628422 0.33126113 -0.09959909 0.15842849 -0.28034714
0.48955628 -0.25478414 0.51870316 -0.08418338 -0.69690615 -0.401226 0.1492214 0.047105704
-0.1649133 0.4946978 -0.70916593 -0.9909611 0.6474991 0.3627805 -0.20626415 -0.27905792
-0.6851977 0.31911075 0.33534405 -0.32929042 0.27487263 -0.20848115 -0.27035293 -0.17438024
0.085767895 -0.5765351 -0.047225654 -0.45141143 -0.19322039 0.14336233 0.6073357 0.32719156
0.111692555 0.86410856 0.6578214 0.50102204 0.16433255 0.6843701 -0.1670322 -0.6835317
-0.33716515 0.09765768 1.119653 -0.007144476 0.07037442 -0.43474442 0.07103034 0.061161537
-0.29744405 -0.23379156 -0.29805052 -0.0055597792 -0.7486689 -0.12371512 -0.5826564 -0.8010325
0.1136276 0.24183515 0.7853973 0.24356176 0.82824135 -0.15877554 0.513893 0.4304341
-0.121893905 -0.374254 0.1294074 0.8995088 0.85550475 -0.4266895 0.39418927 0.17349917
-0.039259803 -0.2848987 0.15725933 -0.123062484 0.5963682 0.9910355 -0.59607005 -0.10998633
-0.3978231 0.6860631 -0.034399506 -0.27968526 0.7179938 -0.109792344 -0.40638483 -0.56569695
0.45918724 0.60839695 -0.3885298 -0.2575259 0.43627307 0.5026683 0.1118035 0.21135965
-0.28130525 -0.6575239 0.59947866 -0.19764455 -0.19047488 -0.36087173 0.2324673 1.0093747
0.12291323 0.32130778 -0.19586809 -0.23240781 -0.05137513 -0.04728991 -0.5389926 0.21187288
-0.29342076 -0.37454808 -0.28194147 -0.5641326 1.1774497 -0.7977717 -0.23365667 -0.22860913
0.26035437 -0.58649784 -0.4633464 -0.37579292 -0.24464542 -0.20991287 0.114511125 -0.14543858
0.22115564 -0.37894136 -0.22454958 0.594155 -0.010440149 0.14499097 -0.07181815 -0.24309354
-0.24642834 0.18068084 -0.1788012 -0.03118576 0.099331625 -0.15187132 0.11450143 0.75117207
-0.020291576 0.55235726 0.67476803 -0.0523857 -0.6075921 -0.10321742 -0.79383785 -0.13710317
-0.426604 -0.27063423 0.61567825 0.5366605 0.0376197 0.01001107 0.6268927 0.49644908
00000000: f5f6 2bbd 96ad 153d f743 b3be 1967 a13e
00000010: 3b28 663e 1f64 0abf 4f88 06bf b6a5 20be
00000020: a851 b4bc b2cb f43e 376c 003e a376 7fbe
00000030: 6e0c e9bc 1deb e3bc 8e59 e4be 205f c13e
00000040: 18be 01be f4b7 653e 4d36 e2be 8685 dd3e
00000050: 6e62 af3e 96fe 183f 963a 153f 01bc d5be
00000060: a822 fa3e bf66 a03e 91d3 2ebf 8e13 2f3e
00000070: 0df0 133f 3fed 84be ff2f aabe b410 063f
00000080: 4b60 1abf 14f0 8dbe 048e 2b3f 0bb1 fbbd
00000090: c371 a1bd 1cf0 cd3c 4a46 46bd eb57 ad3e
000000a0: 1812 67bf e351 843e e8a1 043f 782f 8ebc
000000b0: fd33 0fbf 2fad 85be cd80 ca3e 20e2 12be
000000c0: e9a0 33bf b8b0 87bd 8c22 85be bcd1 023f
000000d0: 593a bebe f831 6c3f 0b0c 04bf 54aa eabe
000000e0: 0237 bc3d 9be1 4dbd cd41 463e 465a ff3d
000000f0: 1fe2 b03c a6e6 f23e b238 163c 2747 1dbe
00000100: 969c d5bd 71a4 be3e e1b6 39bd 6fcb 0e3f
00000110: 1666 a5be b756 283e 796d 3a3e 978a a0be
00000120: c15e 1ebe 4721 2d3e 3d0e 553f 0e29 0abd
00000130: c137 18bf 4ce1 573e 39f2 69be b1f7 053f
00000140: 4b04 27bf e0db 5bbd f2a6 de3d 0e1b 81be
00000150: 6bac 9fbe e5d5 313f 3d32 23bc 47d0 ef3e
00000160: f17f c0bd 1e92 f7be d04e 7c3e 49d1 9c3e
00000170: 0f9b a93e 9cfa cbbd 143b 223e a989 8fbe
00000180: 1fa7 fa3e 1173 82be bbc9 043f 5668 acbd
00000190: 7168 32bf 7f6d cdbe 7fcd 183e e9f1 403d
000001a0: 08df 28be 0849 fd3e e68b 35bf a0af 7dbf
000001b0: 80c2 253f 5ebe b93e e936 53be aee0 8ebe
000001c0: 1e69 2fbf 7c62 a33e 37b2 ab3e c198 a8be
000001d0: 1bbc 8c3e 157c 55be b36b 8abe bc90 32be
000001e0: 14a7 af3d ce97 13bf b06f 41bd 661f e7be
000001f0: 91db 45be 93cd 123e 5a7a 1b3f a785 a73e
00000200: 11bf e43d 3836 5d3f fc66 283f fb42 003f
00000210: cb46 283e e132 2f3f 7d0a 2bbe effb 2ebf
00000220: e9a0 acbe c000 c83d ca50 8f3f 351c eabb
00000230: 7720 903d d296 debe 5b78 913d 8584 7a3d
00000240: 964a 98be 0e67 6fbe 149a 98be cf2e b6bb
00000250: c4a8 3fbf 5a5e fdbd f828 15bf 7710 4dbf
00000260: 96b5 e83d a2a3 773e cc0f 493f 4168 793e
00000270: a007 543f 0e96 22be 7e8e 033f dc61 dc3e
00000280: 83a3 f9bd 389e bfbe 6083 043e 3546 663f
00000290: 5c02 5b3f 0c77 dabe 2dd3 c93e c4a9 313e
000002a0: e3ce 20bd 3ede 91be 9708 213e 2f08 fcbd
000002b0: 96ab 183f 81b4 7d3f 0c98 18bf 8340 e1bd
000002c0: 78af cbbe d5a1 2f3f 7fe6 0cbd e832 8fbe
000002d0: 71ce 373f cfda e0bd ac11 d0be 84d1 10bf
000002e0: 971a eb3e e7bf 1b3f 61ed c6be 6fda 83be
000002f0: 2f5f df3e dfae 003f 3cf9 e43d aa6e 583e
00000300: 3e07 90be 7c53 28bf 6f77 193f 5563 4abe
00000310: d90b 43be 2ec4 b8be e80b 6e3e 3133 813f
00000320: eeb9 fb3d 7482 a43e a591 48be 50fc 6dbe
00000330: ba6e 52bd 11b3 41bd 6bfb 09bf 34f5 583e
00000340: 3f3b 96be c4c4 bfbe a25a 90be fe6a 10bf
00000350: acb6 963f c43a 4cbf b243 6fbe 8318 6abe
00000360: 2b4d 853e b924 16bf bd3b edbe ee67 c0be
00000370: 5484 7abe 66f3 56be cf84 ea3d daed 14be
00000380: a076 623e 9a04 c2be 53f0 65be 8b1a 183f
00000390: 290d 2bbc 8378 143e 6515 93bd 83ed 78be
000003a0: b657 7cbe 6604 393e a917 37be 4779 ffbc
000003b0: 616e cb3d 2884 1bbe ba7f ea3d d04c 403f
000003c0: 853a a6bc 4967 0d3f 99bd 2c3f 6392 56bd
000003d0: 288b 1bbf a863 d3bd f538 4bbf c664 0cbe
000003e0: d76b dabe 9290 8abe 179d 1d3f 9562 093f
000003f0: 1d17 1a3d 7905 243c 0a7c 203f 932e fe3e

fc3.bias f4 [4]
0.047278933 -0.02245767 -0.031601585 -0.10846273
00000000: 8ea7 413d 26f9 b7bc aa70 01bd b521 debd

bn1.weight f4 [128]
0.9374677 0.90329987 0.94052666 1.1729251 1.2533761 0.75433606 1.0804278 0.691422
1.0969336 0.912867 0.9551217 0.72547525 1.3230937 1.0930873 0.4741428 1.2289457
0.8245117 1.1694309 0.9932442 1.1114129 0.9841219 1.5072572 0.6455588 1.0762353
1.16669 0.69764185 1.2220728 1.3304969 1.1959909 1.1821933 0.7215745 0.6833255
0.8010675 0.5458331 0.6217904 0.66149706 1.1884007 1.0171182 1.6998341 1.2045902
0.6733826 -0.6244999 0.89010745 0.82930833 0.49126354 1.1526067 1.4315016 0.6919539
0.7661747 0.8256819 0.9650522 1.1221141 0.81856155 1.3677045 1.0047202 0.91762304
0.48891336 0.6698368 1.0948799 1.0555112 0.628201 0.90208256 0.532089 0.7454304
0.9226055 1.1495188 0.6370671 0.9247439 1.3233526 0.88158333 0.8136402 1.148833
0.6270013 0.5998482 0.9612359 0.68006074 1.4143294 1.2961428 1.0590502 0.63321996
1.0538063 1.1777285 0.69394016 1.074452 0.53299963 0.6601466 0.9245658 1.6498044
1.0812316 0.80356026 0.66007465 0.5457649 0.6723906 1.0464432 0.85421586 1.1750929
0.669256 0.6529533 0.83823 1.0869757 0.9764751 0.64308435 1.3288906 0.66596234
1.1022296 1.0791683 0.79952115 1.1300662 0.8135058 0.86513436 0.81062263 1.1068692
0.8508826 0.95347345 0.7261572 0.8733149 0.49908656 0.83982396 1.0732294 1.0574982
0.6158233 1.0883083 0.832664 1.0581172 0.93696856 0.8262997 0.9430039 1.178689
00000000: e2fd 6f3f a93e 673f 5bc6 703f 6922 963f
00000010: a16e a03f 2b1c 413f 754b 8a3f 0801 313f
00000020: 5268 8c3f a7b1 693f db82 743f bfb8 393f
00000030: 225b a93f 49ea 8b3f d8c2 f23e 184e 9d3f
00000040: 3313 533f e9af 953f 4045 7e3f c742 8e3f
00000050: 6aef 7b3f ceed c03f 5743 253f 14c2 893f
00000060: 1956 953f a898 323f e26c 9c3f b94d aa3f
00000070: 3b16 993f 1c52 973f 1bb9 383f 6cee 2e3f
00000080: c212 4d3f b8bb 0b3f a82d 1f3f df57 293f
00000090: 841d 983f ee30 823f 2a94 d93f 0330 9a3f
000000a0: cd62 2c3f 3adf 1fbf 15de 633f 8d4d 543f
000000b0: e586 fb3e 9e88 933f 723b b73f e423 313f
000000c0: 0624 443f e45f 533f a90d 773f 6fa1 8f3f
000000d0: 408d 513f f110 af3f ac9a 803f 58e9 6a3f
000000e0: da52 fa3e 6d7a 2b3f 0625 8c3f fe1a 873f
000000f0: c8d1 203f e2ee 663f fc36 083f 87d4 3e3f
00000100: e02f 6c3f 6f23 933f d416 233f 04bc 6c3f
00000110: 9e63 a93f 72af 613f b94a 503f f60c 933f
00000120: 2883 203f a78f 193f 8e13 763f 7618 2e3f
00000130: bf08 b53f 02e8 a53f f58e 873f b41a 223f
00000140: 20e3 863f cfbf 963f 10a6 313f a587 893f
00000150: aa72 083f 5eff 283f 58b0 6c3f ca2c d33f
00000160: cc65 8a3f 20b6 4d3f a7fa 283f 40b7 0b3f
00000170: ca21 2c3f daf1 853f e4ad 5a3f 7269 963f
00000180: 5c54 2b3f f327 273f 3e96 563f 0522 8b3f
00000190: 46fa 793f 2da1 243f 1619 aa3f 827c 2a3f
000001a0: dc15 8d3f 3022 8a3f 6bad 4c3f 02a6 903f
000001b0: eb41 503f 7279 5d3f f784 4f3f e4ad 8d3f
000001c0: 71d3 593f d616 743f 70e5 393f 9191 5f3f
000001d0: 4688 ff3e b4fe 563f 955f 893f 1a5c 873f
000001e0: 99a6 1d3f b04d 8b3f 7829 553f 6270 873f
000001f0: 2cdd 6f3f 6188 533f b468 713f 48df 963f

bn1.bias f4 [128]
0.3388764 0.042087875 -0.007979933 0.2588554 0.027534524 -0.090423346 -0.01574962 -0.025388505
0.18914753 0.22631629 0.15164776 0.027661372 0.1216248 0.09792018 0.119411066 -0.040474914
-0.03439073 -0.018146453 0.11436852 0.1384623 0.030414114 -0.1653232 0.0044230693 0.13122706
0.078543216 0.23984131 0.08453234 0.44625074 0.056098502 0.26696852 -0.012666664 -0.030299041
0.23720759 -0.3303791 0.22953333 0.21815968 0.13119747 0.10470583 -0.055239823 -0.19141218
0.11069678 -0.2047122 0.071989186 0.1437901 0.1524064 0.08549899 0.021102061 0.0660401
0.00086199434 -0.053749543 0.111530475 -0.21714608 -0.07000002 -0.025124978 0.05769313 0.10250239
0.1813867 0.17353594 -0.124231875 -0.06607127 -0.11031489 0.34450406 -0.011464467 -0.11201085
-0.08318222 0.14800726 -0.062273424 -0.11596161 0.17643747 0.11723045 0.113941744 0.042914953
-0.18900935 0.16817562 0.13756882 0.023470536 -0.03010136 0.13224919 0.123388045 -0.18083566
-0.1447113 0.22356802 -0.15134448 -0.17946407 0.15486841 -0.030055633 0.0024415154 0.08162456
0.012598453 -0.20805652 0.024705058 -0.13548176 -0.013975804 0.10371315 0.04845077 0.04704788
-0.13389269 0.13015482 0.107013635 -0.08924205 0.015202817 0.04305939 0.055013184 -0.09405069
0.077532955 -0.057962865 -0.023672132 0.022247456 0.23982576 0.06272159 0.22475599 0.06492963
0.16495271 0.07725454 -0.06462465 0.1318902 -0.033447523 -0.11322123 0.10663992 -0.0016359815
0.09730411 0.0636337 -0.09674338 0.034100804 -0.06340254 -0.043978177 0.095704794 -0.072388895
00000000: 3581 ad3e 5664 2c3d 44be 02bc b288 843e
00000010: 1590 e13c e02f b9bd 5905 81bc 8efb cfbc
00000020: e4af 413e 75bf 673e 8d49 1b3e 1a9a e23c
00000030: 6c16 f93d 608a c83d ca8d f43d 06c9 25bd
00000040: 4bdd 0cbd dfa7 94bc 0b3a ea3d 10c9 0d3e
00000050: 0527 f93c 7c4a 29be 65ef 903b 6360 063e
00000060: 44db a03d f698 753e 4b1f ad3d fa7a e43e
00000070: 8bc7 653d 19b0 883e d787 4fbc b235 f8bc
00000080: 8ce6 723e 7327 a9be c90a 6b3e 4065 5f3e
00000090: a158 063e 0370 d63d 2743 62bd 8e01 44be
000000a0: feb4 e23d 13a0 51be 116f 933d b63d 133e
000000b0: 6c10 1c3e 181a af3d 3bde ac3c 0840 873d
000000c0: 76f7 613a 7b28 5cbd 176a e43d 8b5b 5ebe
000000d0: 2c5c 8fbd e6d2 cdbc a24f 6c3d c6ec d13d
000000e0: 6fbd 393e 68b3 313e 486d febd 6050 87bd
000000f0: c6ec e1bd d662 b03e 76d5 3bbc f265 e5bd
00000100: 715b aabd 378f 173e 6b12 7fbd 487d edbd
00000110: 06ac 343e 8516 f03d 4a5a e93d 97c7 2f3d
00000120: ab8b 41be 3b36 2c3e d7de 0c3e 4845 c03c
00000130: 2197 f6bc 556c 073e dfb2 fc3d fc2c 39be
00000140: 332f 14be 04ef 643e 0cfa 1abe 6ec5 37be
00000150: d395 1e3e 3b37 f6bc d501 203b c72a a73d
00000160: be69 4e3c c50c 55be 4362 ca3c bbbb 0abe
00000170: c5fa 64bc 8f67 d43d 5174 463d 47b5 403d
00000180: 2a1b 09be 4e47 053e f729 db3d 89c4 b6bd
00000190: 3c15 793c 0b5f 303d 8155 613d a69d c0bd
000001a0: 99c9 9e3d 786a 6dbd 0fec c1bc 4c40 b63c
000001b0: e294 753e 2d74 803d 6f26 663e d3f9 843d
000001c0: 5de9 283e a137 9e3d ee59 84bd 390e 073e
000001d0: 4500 09bd 88e0 e7bd 0866 da3d 6e6e d6ba
000001e0: 6147 c73d 6352 823d 6521 c6bd 49ad 0b3d
000001f0: 31d9 81bd 7622 34bd e000 c43d a140 94bd

bn1.running_mean f4 [128]
0.31877303 0.53213614 0.21070385 0.3499062 0.19254361 0.20239995 0.14246075 0.6834583
0.46819165 0.53175336 0.2699872 0.22878215 1.8744742 0.21290097 0.13590057 0.13731895
0.28814107 0.008946972 1.500267 0.3854276 0.049120516 0.18295863 0.0517956 1.1375648
0.050289206 0.22773564 0.44394538 0.09711443 0.12964441 0.20568673 0.3808844 0.8783899
0.15939295 0.03073993 0.81522185 0.22507468 0.26779 0.31801102 0.40720683 0.023924163
0.63724446 0.77828395 0.3808585 1.0456233 0.10354633 0.15618333 0.9176713 1.2645746
0.6779636 0.33114636 0.50583124 0.67296976 0.09484106 0.16234253 0.19711939 0.13499168
0.06866222 0.078990445 0.5446285 0.1303973 0.47232717 0.06077534 0.11056721 0.25167617
0.37341738 0.035403006 0.42696157 0.024858113 0.39636707 0.6930561 0.19942929 1.1253517
0.50522995 0.13796215 0.06271805 0.26009524 0.13126788 0.3130895 0.5632978 0.29055518
0.037737522 0.10071093 0.004046041 0.049957246 0.087483406 0.20539564 1.8189397 0.0946296
0.29652238 0.06809264 0.018230503 0.65572214 0.14048669 0.044367384 0.25405833 0.095087126
0.7913334 0.452275 0.15449634 1.4065655 0.12977186 0.061115522 0.29977986 0.6261842
1.0216701 0.3447026 0.35644054 0.15443486 0.29167202 0.9203465 0.15460774 0.24480467
0.08437981 0.28283477 0.11056965 0.6606896 0.14095326 0.46978378 1.1426528 0.1624769
0.3977965 0.3655099 1.0238148 0.93175334 0.0789419 0.098878115 0.060297947 1.1464572
00000000: 3836 a33e 133a 083f c0c2 573e e826 b33e
00000010: 272a 453e ef41 4f3e 3be1 113e 20f7 2e3f
00000020: d1b6 ef3e fd20 083f c33b 8a3e de45 6a3e
00000030: c5ee ef3f b602 5a3e 8529 0b3e 579d 0c3e
00000040: 3a87 933e 5296 123c c008 c03f c456 c53e
00000050: 9832 493d 8259 3b3e a027 543d b99b 913f
00000060: 0efc 4d3d 8833 693e cf4c e33e eee3 c63d
00000070: 81c1 043e 8b9f 523e 4803 c33e 29de 603f
00000080: e837 233e 4ed2 fb3c 61b2 503f fa79 663e
00000090: c51b 893e 57d2 a23e 6a7d d03e 9bfc c33c
000000a0: 7422 233f 9e3d 473f e3ff c23e fcd6 853f
000000b0: 1910 d43d 86ee 1f3e 82ec 6a3f 95dd a13f
000000c0: 068f 2d3f 048c a93e 287e 013f bf47 2c3f
000000d0: 083c c23d 1f3d 263e aad9 493e 423b 0a3e
000000e0: c79e 8c3d bec5 a13d c66c 0b3f df86 053e
000000f0: ded4 f13e 90ef 783d 1071 e23d b3db 803e
00000100: 9030 bf3e be02 113d b59a da3e 3ea3 cb3c
00000110: a0f0 ca3e 206c 313f 3137 4c3e 860b 903f
00000120: c056 013f f345 0d3e 5272 803d 342b 853e
00000130: 166b 063e 444d a03e 4934 103f a6c3 943e
00000140: a992 1a3d 8841 ce3d a794 843b f89f 4c3d
00000150: 802a b33d 3c53 523e 04d3 e83f 2acd c13d
00000160: c8d1 973e 2774 8b3d 2358 953c 68dd 273f
00000170: bedb 0f3e 93ba 353d ef13 823e 0abd c23d
00000180: d394 4a3f 9790 e73e 4a34 1e3e 570a b43f
00000190: eae2 043e 4554 7a3d bf7c 993e 9c4d 203f
000001a0: 16c6 823f dc7c b03e 607f b63e 2c24 1e3e
000001b0: 0956 953e d49b 6b3f 7e51 1e3e 13ae 7a3e
000001c0: 52cf ac3d b8cf 903e 5772 e23d f422 293f
000001d0: 0d56 103e 8087 f03e 7242 923f 5860 263e
000001e0: fcab cb3e 1d24 bb3e 5d0c 833f 6387 6e3f
000001f0: 4aac a13d 9c80 ca3d fbfa 763d 1cbf 923f

bn1.running_var f4 [128]
0.24475427 0.4360037 0.11587851 0.24256264 0.101594545 0.19387951 0.08842914 0.89345586
0.44092003 0.60380685 0.20142354 0.20764597 0.40789607 0.16360256 0.09951299 0.056679253
0.20543453 0.007165349 0.42516667 0.2731643 0.025495954 0.13476105 0.040961046 1.6622285
0.040665776 0.16300023 0.4749174 0.059834175 0.06519423 0.16689436 0.15134802 1.2902642
0.09514343 0.027627489 1.2379167 0.14996298 0.25477448 0.1627749 0.27239552 0.014868817
0.6751382 1.0149766 0.21109006 1.3811324 0.12667157 0.13664661 0.3740121 1.2434794
0.75723034 0.25075555 0.44568425 0.57991683 0.053950395 0.080532715 0.16624849 0.0886701
0.06784917 0.07439275 0.4998518 0.087519474 0.39737248 0.030598564 0.08250067 0.20072426
0.12556674 0.019014314 0.32818788 0.013867021 0.16777427 0.12290095 0.11488697 1.0347079
0.4494073 0.06874308 0.035254627 0.21422063 0.0881887 0.24798042 0.35630643 0.23184904
0.029594319 0.05283324 0.002448745 0.031743918 0.056025337 0.14705203 1.600231 0.05484054
0.16360638 0.057178445 0.014744663 0.70733076 0.10364345 0.031126706 0.18655774 0.05850093
0.64454716 0.40006527 0.121143766 0.40059626 0.06638402 0.046954606 0.2969489 0.5601181
1.0041606 0.30783424 0.12724401 0.10697665 0.27350935 0.6486357 0.083469495 0.22125934
0.050285414 0.22586128 0.10367142 0.48079008 0.113428704 0.49173445 1.1712708 0.13534647
0.46095744 0.29987234 1.3812481 0.17017972 0.041406978 0.057698622 0.033358324 0.66279405
00000000: dda0 7a3e e13b df3e b651 ed3d 5762 783e
00000010: cd10 d03d 5a88 463e 561a b53d 86b9 643f
00000020: 45c0 e13e 1693 1a3f f941 4e3e 25a1 543e
00000030: c1d7 d03e 6e87 273e 77cd cb3d 8128 683d
00000040: 6e5d 523e 4ecb ea3b 72af d93e 31dc 8b3e
00000050: e4dc d03c cdfe 093e c5c6 273d e7c3 d43f
00000060: 2891 263d 88e9 263e 6028 f33e ae14 753d
00000070: 8d84 853d 5be6 2a3e fafa 1a3e 6127 a53f
00000080: 8fda c23d 0b53 e23c 0e74 9e3f e58f 193e
00000090: cd71 823e 77ae 263e 6d77 8b3e 579c 733c
000000a0: dbd5 2c3f c1ea 813f fe27 583e f2c8 b03f
000000b0: 31b6 013e 17ed 0b3e 847e bf3e 552a 9f3f
000000c0: d9d9 413f 0863 803e ba30 e43e 6e75 143f
000000d0: 17fb 5c3d 56ee a43d 0b3d 2a3e ab98 b53d
000000e0: 81f4 8a3d 3a5b 983d 93ec ff3e 693d b33d
000000f0: 6874 cb3e d7a9 fa3c 1cf6 a83d a98a 4d3e
00000100: 9194 003e e8c3 9b3c 3e08 a83e 8032 633c
00000110: 05cd 2b3e 7eb3 fb3d dc49 eb3d 4f71 843f
00000120: b718 e63e 2cc9 8c3d 2867 103d a75c 5b3e
00000130: 479c b43d 94ee 7d3e cc6d b63e d669 6d3e
00000140: c96f f23c ab67 583d 207b 203b e905 023d
00000150: d37a 653d cf94 163e 5fd4 cc3f 79a0 603d
00000160: 6e88 273e f233 6a3d 9993 713c a113 353f
00000170: 0443 d43d 6ffd fe3c fe08 3f3e ac9e 6f3d
00000180: 0b01 253f 5bd5 cc3e 391a f83d f41a cd3e
00000190: 58f4 873d 7953 403d b009 983e e663 0f3f
000001a0: 5688 803f 739c 9d3e 414c 023e 9316 db3d
000001b0: 6b09 8c3e fd0c 263f 0ef2 aa3d cf91 623e
000001c0: 14f8 4d3d 2e48 673e ae51 d43d 1e2a f63e
000001d0: 4f4d e83d 9ec4 fb3e 34ec 953f 4498 0a3e
000001e0: 9d02 ec3e de88 993e bdcc b03f 9843 2e3e
000001f0: 5d9a 293d 6455 6c3d bda2 083d dfac 293f

bn2.weight f4 [128]
0.825984 0.5929734 0.38231748 0.15708989 0.031864166 0.13265157 0.98230034 0.5675998
0.75001013 0.68056864 0.5378556 0.8172346 0.7480045 0.04021156 0.72340363 0.3661347
0.2850924 0.5666289 0.95847917 0.18586469 0.36837983 0.9258215 0.11493206 0.8135686
0.5057616 0.23375571 0.7890113 0.6119867 0.44923037 0.95244396 0.19159734 0.08917934
0.39368826 0.40227705 0.5443856 0.78667945 0.9920772 0.23231316 0.65528405 0.9194702
0.5205112 0.19861436 0.791368 0.31689584 0.5804397 0.5605995 0.2724161 0.29316032
0.72012824 0.26679444 0.90094674 0.6005159 0.33762884 0.44885796 0.073363185 0.8527539
0.33574462 0.98332953 0.61794496 0.46487188 0.32911545 0.8196659 0.24618053 0.67862
0.25484347 0.49863273 0.2403965 0.543022 0.7082517 0.38021117 0.41834414 0.7650633
0.22880673 0.10540241 0.31817687 0.5439863 0.6818477 0.9099775 0.047862172 0.08093035
0.62638897 0.065598965 0.6633765 0.4179482 0.68188226 0.82132936 0.24013305 0.51879025
0.77795756 0.22445863 0.8928762 0.7219261 0.78349215 0.43453985 0.46065485 0.91805136
0.64725447 0.1592648 0.104025066 0.3097701 0.70923024 0.035366893 0.90660065 0.6196721
0.095333934 0.015535712 0.8961297 0.31500524 0.30416924 0.27409142 0.095686674 0.6744744
0.538459 0.3616631 0.6596162 0.30401647 0.675928 0.0866766 0.1805808 0.22149992
0.7449677 0.81566286 0.24365342 0.22804701 0.8744218 0.38483793 0.11289477 0.83515674
00000000: b073 533f 1bcd 173f 1ebf c33e 2cdc 203e
00000010: 0084 023d d0d5 073e 0978 7b3f 384e 113f
00000020: aa00 403f bf39 2e3f e8b0 093f 4936 513f
00000030: 397d 3f3f e0b4 243d fb30 393f 0276 bb3e
00000040: a2f7 913e 970e 113f e45e 753f 5053 3e3e
00000050: 489c bc3e a302 6d3f 8061 eb3d 0846 503f
00000060: 9879 013f a85d 6f3e a5fc 493f 29ab 1c3f
00000070: 8601 e63e 5ed3 733f 1832 443e a8a3 b63d
00000080: 8291 c93e 42f7 cd3e db5c 0b3f d363 493f
00000090: c5f8 7d3f 80e3 6d3e b2c0 273f 6662 6b3f
000000a0: 3940 053f 9061 4b3e 1897 4a3f 2c40 a23e
000000b0: b297 143f 7383 0f3f 207a 8b3e 1c19 963e
000000c0: 535a 383f 4899 883e 72a4 663f 69bb 193f
000000d0: b0dd ac3e b6d0 e53e 703f 963d 144e 5a3f
000000e0: b8e6 ab3e 7cbb 7b3f a431 1e3f b003 ee3e
000000f0: d281 a83e a0d5 513f c016 7c3e 0aba 2d3f
00000100: d87a 823e ca4c ff3e 802a 763e 7d03 0b3f
00000110: fc4f 353f 0aab c23e 3431 d63e 30db 433f
00000120: 504c 6a3e 38dd d73d 14e8 a23e b042 0b3f
00000130: 928d 2e3f 49f4 683f 200b 443d d0be a53d
00000140: 075b 203f c058 863d 0bd3 293f 4efd d53e
00000150: d68f 2e3f a442 523f 70e5 753e 70cf 043f
00000160: 3a28 473f 7cd8 653e 8993 643f 26d0 383f
00000170: f192 483f 027c de3e f4da eb3e 6a05 6b3f
00000180: 78b2 253f 5016 233e 180b d53d 309a 9e3e
00000190: 1d90 353f e0dc 103d fb16 683f d5a2 1e3f
000001a0: 703e c33d 8089 7e3c c268 653f 5e48 a13e
000001b0: 12bc 9b3e b655 8c3e 60f7 c33d 5baa 2c3f
000001c0: 73d8 093f e82b b93e 9bdc 283f 0ca8 9b3e
000001d0: 9e09 2d3f 8083 b13d 2cea 383e e0d0 623e
000001e0: 34b6 3e3f 48cf 503f 4880 793e 2885 693e
000001f0: 1bda 5f3f 7a09 c53e 6035 e73d d5cc 553f

bn2.bias f4 [128]
0.0 0.0 0.0 0.0 0.0 0.0 0.0 0.0
0.0 0.0 0.0 0.0 0.0 0.0 0.0 0.0
0.0 0.0 0.0 0.0 0.0 0.0 0.0 0.0
0.0 0.0 0.0 0.0 0.0 0.0 0.0 0.0
0.0 0.0 0.0 0.0 0.0 0.0 0.0 0.0
0.0 0.0 0.0 0.0 0.0 0.0 0.0 0.0
0.0 0.0 0.0 0.0 0.0 0.0 0.0 0.0
0.0 0.0 0.0 0.0 0.0 0.0 0.0 0.0
0.0 0.0 0.0 0.0 0.0 0.0 0.0 0.0
0.0 0.0 0.0 0.0 0.0 0.0 0.0 0.0
0.0 0.0 0.0 0.0 0.0 0.0 0.0 0.0
0.0 0.0 0.0 0.0 0.0 0.0 0.0 0.0
0.0 0.0 0.0 0.0 0.0 0.0 0.0 0.0
0.0 0.0 0.0 0.0 0.0 0.0 0.0 0.0
0.0 0.0 0.0 0.0 0.0 0.0 0.0 0.0
0.0 0.0 0.0 0.0 0.0 0.0 0.0 0.0
00000000: 0000 0000 0000 0000 0000 0000 0000 0000
00000010: 0000 0000 0000 0000 0000 0000 0000 0000
00000020: 0000 0000 0000 0000 0000 0000 0000 0000
00000030: 0000 0000 0000 0000 0000 0000 0000 0000
00000040: 0000 0000 0000 0000 0000 0000 0000 0000
00000050: 0000 0000 0000 0000 0000 0000 0000 0000
00000060: 0000 0000 0000 0000 0000 0000 0000 0000
00000070: 0000 0000 0000 0000 0000 0000 0000 0000
00000080: 0000 0000 0000 0000 0000 0000 0000 0000
00000090: 0000 0000 0000 0000 0000 0000 0000 0000
000000a0: 0000 0000 0000 0000 0000 0000 0000 0000
000000b0: 0000 0000 0000 0000 0000 0000 0000 0000
000000c0: 0000 0000 0000 0000 0000 0000 0000 0000
000000d0: 0000 0000 0000 0000 0000 0000 0000 0000
000000e0: 0000 0000 0000 0000 0000 0000 0000 0000
000000f0: 0000 0000 0000 0000 0000 0000 0000 0000
00000100: 0000 0000 0000 0000 0000 0000 0000 0000
00000110: 0000 0000 0000 0000 0000 0000 0000 0000
00000120: 0000 0000 0000 0000 0000 0000 0000 0000
00000130: 0000 0000 0000 0000 0000 0000 0000 0000
00000140: 0000 0000 0000 0000 0000 0000 0000 0000
00000150: 0000 0000 0000 0000 0000 0000 0000 0000
00000160: 0000 0000 0000 0000 0000 0000 0000 0000
00000170: 0000 0000 0000 0000 0000 0000 0000 0000
00000180: 0000 0000 0000 0000 0000 0000 0000 0000
00000190: 0000 0000 0000 0000 0000 0000 0000 0000
000001a0: 0000 0000 0000 0000 0000 0000 0000 0000
000001b0: 0000 0000 0000 0000 0000 0000 0000 0000
000001c0: 0000 0000 0000 0000 0000 0000 0000 0000
000001d0: 0000 0000 0000 0000 0000 0000 0000 0000
000001e0: 0000 0000 0000 0000 0000 0000 0000 0000
000001f0: 0000 0000 0000 0000 0000 0000 0000 0000

bn2.running_mean f4 [128]
0.0 0.0 0.0 0.0 0.0 0.0 0.0 0.0
0.0 0.0 0.0 0.0 0.0 0.0 0.0 0.0
0.0 0.0 0.0 0.0 0.0 0.0 0.0 0.0
0.0 0.0 0.0 0.0 0.0 0.0 0.0 0.0
0.0 0.0 0.0 0.0 0.0 0.0 0.0 0.0
0.0 0.0 0.0 0.0 0.0 0.0 0.0 0.0
0.0 0.0 0.0 0.0 0.0 0.0 0.0 0.0
0.0 0.0 0.0 0.0 0.0 0.0 0.0 0.0
0.0 0.0 0.0 0.0 0.0 0.0 0.0 0.0
0.0 0.0 0.0 0.0 0.0 0.0 0.0 0.0
0.0 0.0 0.0 0.0 0.0 0.0 0.0 0.0
0.0 0.0 0.0 0.0 0.0 0.0 0.0 0.0
0.0 0.0 0.0 0.0 0.0 0.0 0.0 0.0
0.0 0.0 0.0 0.0 0.0 0.0 0.0 0.0
0.0 0.0 0.0 0.0 0.0 0.0 0.0 0.0
0.0 0.0 0.0 0.0 0.0 0.0 0.0 0.0
00000000: 0000 0000 0000 0000 0000 0000 0000 0000
00000010: 0000 0000 0000 0000 0000 0000 0000 0000
00000020: 0000 0000 0000 0000 0000 0000 0000 0000
00000030: 0000 0000 0000 0000 0000 0000 0000 0000
00000040: 0000 0000 0000 0000 0000 0000 0000 0000
00000050: 0000 0000 0000 0000 0000 0000 0000 0000
00000060: 0000 0000 0000 0000 0000 0000 0000 0000
00000070: 0000 0000 0000 0000 0000 0000 0000 0000
00000080: 0000 0000 0000 0000 0000 0000 0000 0000
00000090: 0000 0000 0000 0000 0000 0000 0000 0000
000000a0: 0000 0000 0000 0000 0000 0000 0000 0000
000000b0: 0000 0000 0000 0000 0000 0000 0000 0000
000000c0: 0000 0000 0000 0000 0000 0000 0000 0000
000000d0: 0000 0000 0000 0000 0000 0000 0000 0000
000000e0: 0000 0000 0000 0000 0000 0000 0000 0000
000000f0: 0000 0000 0000 0000 0000 0000 0000 0000
00000100: 0000 0000 0000 0000 0000 0000 0000 0000
00000110: 0000 0000 0000 0000 0000 0000 0000 0000
00000120: 0000 0000 0000 0000 0000 0000 0000 0000
00000130: 0000 0000 0000 0000 0000 0000 0000 0000
00000140: 0000 0000 0000 0000 0000 0000 0000 0000
00000150: 0000 0000 0000 0000 0000 0000 0000 0000
00000160: 0000 0000 0000 0000 0000 0000 0000 0000
00000170: 0000 0000 0000 0000 0000 0000 0000 0000
00000180: 0000 0000 0000 0000 0000 0000 0000 0000
00000190: 0000 0000 0000 0000 0000 0000 0000 0000
000001a0: 0000 0000 0000 0000 0000 0000 0000 0000
000001b0: 0000 0000 0000 0000 0000 0000 0000 0000
000001c0: 0000 0000 0000 0000 0000 0000 0000 0000
000001d0: 0000 0000 0000 0000 0000 0000 0000 0000
000001e0: 0000 0000 0000 0000 0000 0000 0000 0000
000001f0: 0000 0000 0000 0000 0000 0000 0000 0000

bn2.running_var f4 [128]
1.0 1.0 1.0 1.0 1.0 1.0 1.0 1.0
1.0 1.0 1.0 1.0 1.0 1.0 1.0 1.0
1.0 1.0 1.0 1.0 1.0 1.0 1.0 1.0
1.0 1.0 1.0 1.0 1.0 1.0 1.0 1.0
1.0 1.0 1.0 1.0 1.0 1.0 1.0 1.0
1.0 1.0 1.0 1.0 1.0 1.0 1.0 1.0
1.0 1.0 1.0 1.0 1.0 1.0 1.0 1.0
1.0 1.0 1.0 1.0 1.0 1.0 1.0 1.0
1.0 1.0 1.0 1.0 1.0 1.0 1.0 1.0
1.0 1.0 1.0 1.0 1.0 1.0 1.0 1.0
1.0 1.0 1.0 1.0 1.0 1.0 1.0 1.0
1.0 1.0 1.0 1.0 1.0 1.0 1.0 1.0
1.0 1.0 1.0 1.0 1.0 1.0 1.0 1.0
1.0 1.0 1.0 1.0 1.0 1.0 1.0 1.0
1.0 1.0 1.0 1.0 1.0 1.0 1.0 1.0
1.0 1.0 1.0 1.0 1.0 1.0 1.0 1.0
00000000: 0000 803f 0000 803f 0000 803f 0000 803f
00000010: 0000 803f 0000 803f 0000 803f 0000 803f
00000020: 0000 803f 0000 803f 0000 803f 0000 803f
00000030: 0000 803f 0000 803f 0000 803f 0000 803f
00000040: 0000 803f 0000 803f 0000 803f 0000 803f
00000050: 0000 803f 0000 803f 0000 803f 0000 803f
00000060: 0000 803f 0000 803f 0000 803f 0000 803f
00000070: 0000 803f 0000 803f 0000 803f 0000 803f
00000080: 0000 803f 0000 803f 0000 803f 0000 803f
00000090: 0000 803f 0000 803f 0000 803f 0000 803f
000000a0: 0000 803f 0000 803f 0000 803f 0000 803f
000000b0: 0000 803f 0000 803f 0000 803f 0000 803f
000000c0: 0000 803f 0000 803f 0000 803f 0000 803f
000000d0: 0000 803f 0000 803f 0000 803f 0000 803f
000000e0: 0000 803f 0000 803f 0000 803f 0000 803f
000000f0: 0000 803f 0000 803f 0000 803f 0000 803f
00000100: 0000 803f 0000 803f 0000 803f 0000 803f
00000110: 0000 803f 0000 803f 0000 803f 0000 803f
00000120: 0000 803f 0000 803f 0000 803f 0000 803f
00000130: 0000 803f 0000 803f 0000 803f 0000 803f
00000140: 0000 803f 0000 803f 0000 803f 0000 803f
00000150: 0000 803f 0000 803f 0000 803f 0000 803f
00000160: 0000 803f 0000 803f 0000 803f 0000 803f
00000170: 0000 803f 0000 803f 0000 803f 0000 803f
00000180: 0000 803f 0000 803f 0000 803f 0000 803f
00000190: 0000 803f 0000 803f 0000 803f 0000 803f
000001a0: 0000 803f 0000 803f 0000 803f 0000 803f
000001b0: 0000 803f 0000 803f 0000 803f 0000 803f
000001c0: 0000 803f 0000 803f 0000 803f 0000 803f
000001d0: 0000 803f 0000 803f 0000 803f 0000 803f
000001e0: 0000 803f 0000 803f 0000 803f 0000 803f
000001f0: 0000 803f 0000 803f 0000 803f 0000 803f
